Saved Models/model_Alex.pt (torch, 370575 bytes, 4 tensors)

fc1.weight f4 [10, 9216]
000000 a4 ae 8d bd 9b e4 84 3b c2 ce c5 3d fd 74 ad bb
       -0.06918076 0.004055572 0.096585765 -0.005293487
000010 0f dd 91 bd 87 24 09 bd c8 8c 5f 3b a0 b3 0f 3d
       -0.07122242 -0.0334821 0.0034111012 0.035083413
000020 45 10 77 3d 9a 48 0a 3d e4 96 52 bb a3 5c 03 bd
       0.06031825 0.033760644 -0.0032133395 -0.032070767
000030 4f 95 01 3d 24 88 1e 3e 5a 4d cd 3d 80 76 1c 3e
       0.031636532 0.15481621 0.10024519 0.15279579
000040 b0 e8 05 3e 18 39 9a bd 50 a8 95 3d fb 1f 82 3e
       0.13077044 -0.07530421 0.07307494 0.25415024
000050 fa 4a 3e 3e 58 7c 2b 3e 3d 77 d7 3d 17 54 44 3b
       0.18583289 0.16746652 0.1052079 0.0029957348
000060 a8 4b 96 3d 33 06 33 3e 84 ea c2 3d d9 a0 e3 3d
       0.07338649 0.17482834 0.095173866 0.11114664
000070 47 e1 ef 3d c8 57 b4 bd d5 8e 29 3d 44 46 ae 3d
       0.1171289 -0.088058054 0.04139598 0.08509496
000080 41 80 ef 3d 78 98 18 3d 1c be c8 3c ee 4d 9a ba
       0.11694384 0.03725478 0.024504714 -0.0011772492
000090 3a 38 bf bd d1 26 17 3c 25 30 82 3c 04 9e 4b 3d
       -0.09336896 0.009225563 0.015892098 0.049711242
0000a0 40 df fb 3a ab d1 cb bc 92 9e 08 3d bf 98 19 3d
       0.0019216314 -0.02488025 0.03335435 0.037499186
0000b0 a9 7d 27 be 74 f7 bd bd 11 2b d9 bd 87 7e 9b bd
       -0.1635653 -0.092757136 -0.106039174 -0.075924926
0000c0 9d d9 0e 3e 10 ac 14 3e b9 17 de bd 12 69 32 be
       0.139502 0.14518762 -0.108443685 -0.17422894
0000d0 3a 5a 53 be 6e 33 69 bd e7 28 19 3e 2b 39 e8 3d
       -0.20639887 -0.056933813 0.1495701 0.11339029
0000e0 64 40 93 bd 1b b6 03 be 4c 05 13 be 1e 40 9f 3d
       -0.07190016 -0.12862436 -0.1435749 0.07775901
0000f0 97 ab 95 3d ca 53 05 3d 1f d8 fd bd 7e 3b 91 3b
       0.07308119 0.03255061 -0.123947375 0.004432141
000100 d3 f6 4b bb 4e 59 9f 3d b5 9a 4e 3d 1c 3a 72 bd
       -0.003112246 0.077807054 0.05044051 -0.05913745
000110 d3 07 f4 bd 5c 2b 34 be d7 26 25 be b1 e6 04 3c
       -0.11915555 -0.17594665 -0.16128097 0.008111642
000120 ef 53 bc 3c 39 fa b5 bb 41 be f3 bd e7 64 a4 bd
       0.022989241 -0.0055535105 -0.119015224 -0.08027058
000130 90 1c b7 bd 89 31 c0 bc 1a 53 08 3e 71 01 f5 3c
       -0.08940995 -0.02346112 0.1331295 0.029907914
000140 5f 57 75 be e6 22 44 bd 9b 71 14 3c b7 fb 3a 3d
       -0.2395911 -0.047884844 0.009060289 0.04565021
000150 ce 6b 37 3e 3f 9b 00 3e 04 56 05 be 25 1d 1b 3d
       0.17912218 0.12559222 -0.13021094 0.03786959
000160 20 90 0d 3d 28 c2 d4 3c 2d 8f 5b 3e cd e3 06 3e
       0.034561276 0.025971487 0.21441336 0.13172837
000170 28 4a 8c bd 81 28 76 bd e6 a1 c4 3a 4a 95 35 bd
       -0.06850082 -0.06009722 0.0015001863 -0.044331826
000180 ec b7 b2 3c 11 16 91 3c dd df be bd 5c c2 28 bd
       0.021816216 0.017710717 -0.09320042 -0.04120098
000190 2e e0 87 bd cb 22 90 bd 2f a5 5f bd 49 cf 9d bd
       -0.06634556 -0.07037886 -0.05460089 -0.07705552
0001a0 ad 29 cc bd 00 d1 8b bd 2b 3b 12 3d fb f8 fc bc
       -0.099688865 -0.06826973 0.03570096 -0.030880442
0001b0 8e e9 bf bd fb a8 9c bd 73 c5 12 3d bf 20 01 3d
       -0.09370719 -0.07649418 0.035832833 0.03152537
0001c0 c4 ee 16 bd 3d 44 c4 bc 68 2e 8e bc 09 a4 c1 bd
       -0.0368488 -0.02395832 -0.017356113 -0.09455115
0001d0 11 7a 43 bd 88 7d 84 bc 4d da 96 bd d6 68 5c be
       -0.047723833 -0.01617314 -0.07365856 -0.21524367
0001e0 5e c6 10 3b b0 b8 97 bc a8 8b 36 bc d5 30 46 be
       0.0022090892 -0.018520683 -0.011141695 -0.19354565
0001f0 81 15 30 be 94 ba 61 be e6 85 4d bd 68 89 e9 bd
       -0.17195703 -0.2204383 -0.050176524 -0.11403161
000200 62 06 52 be 1f 40 bd be ff f1 9a be 96 d8 92 be
       -0.20510247 -0.36962983 -0.30262753 -0.28680867
000210 0f 55 82 bc 6d 92 df bd af b9 14 be 5a 95 57 be
       -0.0159097 -0.109166004 -0.14523958 -0.21053067
000220 f6 ed 4e be aa 8c b0 bd 03 aa a0 be ad 73 7b bd
       -0.20207962 -0.086205795 -0.3137971 -0.061389614
000230 57 ae 67 bc a7 a6 3a bd 06 de 52 bd 4d 3e ac bd
       -0.014140687 -0.04556909 -0.05148127 -0.084103204
000240 76 2d 50 bc fa 88 83 bc c4 53 1d 3b a6 00 b3 bc
       -0.012706151 -0.016056526 0.0024006227 -0.021850895
000250 30 72 f0 bc fe f9 8a bb f3 2e f1 bd 9e c2 20 3d
       -0.029351324 -0.004241227 -0.11776533 0.0392481
000260 ae 92 34 3d b1 d1 76 3d 1a 0e 89 bd 2a 42 96 bd
       0.044085197 0.06025857 -0.06692143 -0.073368385
000270 a0 af ca bd 83 ad d3 bc 69 21 12 3d e5 d1 42 3d
       -0.09896779 -0.025839573 0.035676394 0.047563452
000280 20 9a d6 bd bd 06 b7 bd c0 98 c3 bd 6f c9 c1 bd
       -0.10478616 -0.08936832 -0.09550619 -0.094622485
000290 3e 34 2b bd 88 66 bf bd af 6c d6 bc 05 cb 23 bc
       -0.04179787 -0.09345728 -0.026174871 -0.009997134
0002a0 3c 80 08 bd 44 44 5f bd 52 de 29 bd 4a 30 bc bd
       -0.03332542 -0.054508463 -0.041471787 -0.09188898
0002b0 39 0b 43 3d 31 cb 37 3d fa b5 f7 3c 48 94 b6 3c
       0.047618125 0.044871513 0.03023814 0.022287503
0002c0 93 27 b0 3b 2a 7b d2 3b d6 d7 36 3d 65 d9 64 ba
       0.0053758114 0.0064233737 0.04463943 -0.0008729904
0002d0 dd ec 92 3c 62 03 32 bd 06 86 80 bc 10 9c b4 3c
       0.01793521 -0.043460257 -0.015688907 0.022047073
0002e0 14 48 03 bd 9f 69 1a bf 99 21 5a 3e fa 8c 85 bd
       -0.03205116 -0.60317415 0.21301879 -0.0652103
0002f0 8b d5 33 be 4e 2f 89 bd 76 43 cd bb 1c bf aa 3d
       -0.17561929 -0.06698476 -0.0062641455 0.083372325
000300 1e f7 e8 3d a9 7a 39 bd 44 8c f6 bd fd 2d 57 bd
       0.11375259 -0.045282993 -0.12038472 -0.052534092
000310 df 58 8f bd ba c0 3a 3c b1 13 79 3d 61 7c 90 bd
       -0.06999373 0.011398489 0.060809795 -0.070549734
000320 dd 0c 16 3d 05 80 52 3d 3a 47 dd bc bc e0 f9 3c
       0.03663336 0.05139162 -0.027011503 0.03050267
000330 05 a6 48 3c 9b 26 eb bd de 48 f6 bd 28 cc 95 bd
       0.012246613 -0.11481973 -0.12025617 -0.0731433
000340 7d a8 65 3d a0 af aa 3d 6f 30 7d 3e 4e 7b af 3d
       0.056068886 0.08334279 0.24725507 0.085684404
000350 0d 17 3c bd e8 fd 20 3d e6 1b 5c 3c c9 80 d3 3d
       -0.04592042 0.039304644 0.013434386 0.10327298
000360 76 6d 90 3c 80 6f 06 bb 9d 92 52 bc 7c c3 98 ba
       0.01763032 -0.0020513237 -0.012852338 -0.0011654939
000370 21 e0 b4 bc 21 6b 2c bc a5 33 0e bd 17 9c 88 3c
       -0.02207953 -0.010523588 -0.03471722 0.016675992
000380 91 18 c4 bb 7c 9e 5c 3c e1 dd 07 bd 85 de 3e bc
       -0.005984374 0.01346552 -0.033170585 -0.0116497325
000390 ac e9 eb bc 57 30 10 3d 9d 25 90 3d d5 ec ae 3d
       -0.028797947 0.03520235 0.07038424 0.08541266
0003a0 87 80 1f 3d e4 04 2a 3d 38 d6 9b 3c e8 0e 7a 3d
       0.038940933 0.04150857 0.019023046 0.061049372
0003b0 bb 36 d7 3d 11 41 ea 3d 32 79 b8 3d 66 23 a0 3d
       0.10508486 0.11438192 0.09007491 0.07819252
0003c0 5e 03 95 3d 85 da b2 3d d9 4e c7 3d 6b 83 bd 3d
       0.07276033 0.087330855 0.09731836 0.092535816
0003d0 f8 a3 8d 3d a9 49 09 3d 54 38 2e 3d 92 a6 a0 3c
       0.0691604 0.033517513 0.042534187 0.019610677
0003e0 bf 5d e2 3c e4 ba 36 3d 33 bb a2 3a 6a c6 21 3c
       0.027632592 0.044611827 0.0012415409 0.009873966
0003f0 9b 2e f6 3c 22 56 1c bc fd 21 2a 3d 32 e2 4a 3b
       0.03005152 -0.00954202 0.04153632 0.0030957577

fc1.bias f4 [10]
000000 86 d5 ad 3c 6e eb 6a bc cf e9 ec 3b 57 3b cc b9
       0.02121998 -0.014338357 0.0072300206 -0.00038954124
000010 61 ca 01 bb c5 7e 90 bb cb f3 2d bc ae e7 67 3c
       -0.0019804465 -0.0044096434 -0.010617207 0.014154358
000020 b4 1f 88 bb 6a 25 39 bc
       -0.00415417 -0.011300424

fc2.weight f4 [5, 10]
000000 73 55 b9 3e c3 a0 5e be 9b a6 18 3f c0 5c 8c be
       0.36198005 -0.21741013 0.5962922 -0.27414513
000010 c9 61 41 3e e8 0a b7 be 23 35 90 bd 08 3e e8 3d
       0.18884958 -0.35750508 -0.07041385 0.113399565
000020 4a 42 27 be 55 93 8f 3e b2 7c 83 be ba 4e 76 be
       -0.16333881 0.28042093 -0.25681072 -0.2405347
000030 c7 12 da be 92 d5 7d 3e de 3a f2 bd 5e 88 d2 3e
       -0.4259245 0.24788502 -0.11827634 0.41119665
000040 08 c8 fe bd 5b 5a 96 3e f6 a5 98 be 77 a7 be bd
       -0.12440497 0.2936581 -0.29814118 -0.09309285
000050 db 6b 96 be 8f 34 80 be f0 38 1e be 03 82 aa be
       -0.29379162 -0.250401 -0.15451407 -0.33302316
000060 8e b6 23 be 6f 13 e2 bf bd 1c 6c 3e 37 df 14 bc
       -0.15987608 -1.7662181 0.23057838 -0.009086422
000070 5e 1d 65 be e7 e5 c6 bd 23 63 ea be e7 dc 87 be
       -0.22374484 -0.09711819 -0.4577876 -0.26535723
000080 8e 0e 81 be 3a b7 d2 3b 07 5a f7 bd 0d 2c a7 bf
       -0.25206417 0.0064305337 -0.12077718 -1.3060318
000090 48 22 67 3e ed c9 27 3d 2a 84 1e be 9c 26 62 3e
       0.22571671 0.040964056 -0.15480104 0.22085041
0000a0 6a df ad be fb 67 0a 3e 83 86 93 be 7f 50 56 3e
       -0.33959514 0.13516228 -0.28813562 0.20929144
0000b0 d3 96 7b 3d 66 c7 e2 bf a4 41 c4 3d 6e 0c a2 be
       0.061423134 -1.7717102 0.095828325 -0.31650108
0000c0 1b 42 33 3c 48 01 67 be
       0.010941054 -0.22559083

fc2.bias f4 [5]
000000 43 ef 7b 3e 57 f8 54 3e cd 45 70 3d e4 9b 18 3e
       0.2460299 0.20797859 0.058660317 0.14903218
000010 9c 4f 9c bd
       -0.07632372
