Saved Models/model_DataAug1.pt (torch, 549551 bytes, 8 tensors)

conv1.weight f4 [16, 1, 3, 3]
0.31452346 -0.26093966 -0.45247814 0.3827345 -0.306401 -0.3134706 0.33423427 0.14103138
-0.54882437 0.07212451 0.12865157 -0.09864821 0.09876414 0.17451957 0.32297647 -0.048505448
0.19922423 0.09970747 -0.47416544 -0.09505811 0.1967643 -0.5436996 -0.29876894 0.4773669
-0.20828876 0.021805413 0.40106776 0.02456605 -0.5436002 -0.6573094 0.36191517 -0.13301939
0.00893166 0.23282424 -0.14433557 -0.6376085 0.049478553 0.076464064 0.0506909 0.30758768
-0.16960141 0.3820619 -0.34964374 0.02424286 0.021214604 0.3010107 0.09906139 -0.20618738
-0.28786734 -0.2572029 -0.5358345 -0.3632553 0.231856 -0.17036977 0.49147177 0.19859646
-0.26637772 -0.22528288 -0.41959035 -0.15173936 -0.54743797 0.35355183 0.49078956 -0.16871333
-0.27350733 0.52596855 0.1840502 -0.4179367 0.030081661 0.13200927 -0.207744 0.13680315
-0.267326 0.11629534 0.051263243 0.14083287 0.085713506 -0.12862933 -0.22810058 -0.31446457
-0.2709899 -0.1142408 -0.25821027 0.36266986 -0.36907554 -0.49326548 -0.24016546 0.4484024
0.37172437 0.26233774 -0.29155335 -0.23034346 -0.18103027 -0.26579756 0.09160623 -0.28886265
-0.02883616 -0.24152839 -0.27636778 -0.47025433 -0.7200255 -0.62256914 0.03862025 -0.10000051
0.34055334 0.26116726 0.07845795 0.35992515 -0.16401267 0.20528008 -0.34724456 0.3785258
0.48597267 -0.46102223 -0.019926257 0.0037121647 -0.25764823 -0.15414767 -0.14020304 -0.03889054
-0.15447879 0.19345824 -0.10959417 0.023791691 -0.28324667 0.2977795 0.17406958 0.11770405
0.18570608 -0.40646103 0.02142076 0.17907214 -0.3783497 -0.19151558 0.18742968 -0.13351515
-0.39315435 -0.12906706 0.32565367 0.32284194 -0.27761814 0.27169362 0.28077123 0.36091664
00000000: 3809 a13e e299 85be 37ab e7be c7f5 c33e
00000010: 98e0 9cbe 387f a0be c120 ab3e 886a 103e
00000020: c17f 0cbf 04b6 933d 3dbd 033e 1308 cabd
00000030: da44 ca3d 42b5 323e 2c5d a53e a6ad 46bd
00000040: 7001 4c3e 6e33 cc3d d0c5 f2be d4ad c2bd
00000050: 957c 493e e62f 0bbf 3ef8 98be 6f69 f43e
00000060: a649 55be 44a1 b23c c158 cd3e be3e c93c
00000070: 6229 0bbf 6e45 28bf f24c b93e 3c36 08be
00000080: 1956 123c 7a69 6e3e b4cc 13be 503a 23bf
00000090: 06aa 4a3d 3199 9c3d 43a1 4f3d 227c 9d3e
000000a0: feab 2dbe 9e9d c33e 8104 b3be f698 c63c
000000b0: 40ca ad3c 131e 9a3e b3e0 ca3d c922 53be
000000c0: 5963 93be 19b0 83be 732c 09bf 99fc b9be
000000d0: a96b 6d3e 6a75 2ebe 30a2 fb3e df5c 4b3e
000000e0: a962 88be 8eb0 66be 8cd4 d6be 9061 1bbe
000000f0: e524 0cbf bf04 b53e c548 fb3e 30c3 2cbe
00000100: 2709 8cbe e0a5 063f a877 3c3e cdfb d5be
00000110: d16d f63c 702d 073e d8ba 54be 2016 0c3e
00000120: f4de 88be 402c ee3d 68f9 513d 7e36 103e
00000130: 908a af3d 68b7 03be 3393 69be 8001 a1be
00000140: 30bf 8abe 15f7 e9bd 2334 84be ddaf b93e
00000150: 78f7 bcbe 4b8d fcbe efed 75be 0095 e53e
00000160: a852 be3e 2251 863e 7b46 95be 28df 6bbe
00000170: 0060 39be 9e16 88be 0c9c bb3d cee5 93be
00000180: d039 ecbc 3853 77be 1480 8dbe 2dc5 f0be
00000190: 9753 38bf b160 1fbf 4430 1e3d 11cd ccbd
000001a0: 025d ae3e b7b7 853e 90ae a03d 1c48 b83e
000001b0: f0f2 27be f134 523e 0aca b1be 22ce c13e
000001c0: 69d1 f83e 1b0b ecbe 643c a3bc ca47 733b
000001d0: 78ea 83be e3d8 1dbe 6391 0fbe b04b 1fbd
000001e0: b02f 1ebe eb19 463e e872 e0bd cbe6 c23c
000001f0: b505 91be 8e76 983e 4c3f 323e d20e f13d
00000200: bc29 3e3e a91b d0be 977a af3c b05e 373e
00000210: 0db7 c1be a91c 44be 91ed 3f3e 32b8 08be
00000220: 874b c9be 282a 04be 14bc a63e 8a4b a53e
00000230: f723 8ebe 6d1b 8b3e 3fc1 8f3e 11ca b83e

conv1.bias f4 [16]
0.21220092 -0.43900102 0.2160609 0.19699621 -0.15636955 0.26311553 0.024070565 -0.0055858674
-0.13135438 -0.026654271 -0.32559592 -0.042011425 0.07054128 -0.19160517 -0.019751819 -0.3228425
00000000: 334b 593e bec4 e0be 123f 5d3e 60b9 493e
00000010: 571f 20be 14b7 863e a22f c53c a709 b7bb
00000020: c381 06be 0f5a dabc 82b4 a6be 2c14 2cbd
00000030: f277 903d 2534 44be 91ce a1bc 9d4b a5be

conv2.weight f4 [32, 16, 3, 3]
0.043318506 0.0054940837 0.02064439 -0.08535312 0.040526897 0.0042329417 0.053429477 -0.11268629
-0.12270496 -0.026432488 0.03832302 0.060692392 -0.081594534 -0.11111122 -0.037911825 0.07183594
-0.10747676 -0.27353814 0.13701512 -0.22010513 -0.028970208 -0.28500655 -0.011881993 0.038630046
-0.09412773 -0.0028018896 0.0036334938 -0.14658378 -0.009619889 -0.05772954 0.15259826 0.590072
0.34635985 0.1415782 0.3771677 -0.19869854 -0.12957224 -0.09445205 -0.030068772 -0.054214936
0.102411576 0.0985821 -0.044119284 -0.11037903 -0.064498596 -0.11898418 0.1632201 0.17880358
0.08703464 0.1060476 0.098834276 0.054136347 -0.081131935 -0.007120599 0.11806385 -0.088874325
0.384792 0.058227908 0.46707058 0.5469408 0.06648478 0.1747784 0.07143378 -0.05254172
-0.22646804 -0.23763432 0.009202005 -0.11679116 -0.03919157 0.19264242 0.01671101 0.1986475
0.058143713 -0.014757641 9.0025365e-05 0.066907294 -0.082935706 -0.070479415 0.027918704 0.07610228
-0.024116777 0.22634189 0.15984942 0.39429942 -0.04154493 -0.23888749 0.13910823 -0.008866843
-0.08472054 -0.17415005 0.030018598 0.015517078 -0.04583962 0.022819944 0.022227846 0.037354268
-0.064218126 0.011623047 0.0516083 -0.099181786 -0.34906226 -0.26044416 -0.23752743 -0.2155774
0.13421708 0.2719713 0.14002858 0.16578253 -0.2275284 -0.17982537 0.17736922 -0.07478025
-0.116728984 0.1665722 -0.10382461 -0.051107813 0.15468597 0.051569134 -0.047197156 -0.03218532
-0.015106788 0.082255505 0.0820098 0.012014009 0.020388812 0.062083773 0.19258106 0.085697226
-0.114580534 -0.025684722 0.077133395 0.15816805 -0.03861175 -0.067011625 -0.23333389 0.06481276
0.1731856 0.399514 0.0036652028 -0.093927704 -0.057585765 0.19092758 -0.033478297 -0.25386828
0.057906464 -0.19225933 -0.27976424 -0.03936411 0.06225524 -0.04697662 -0.21829963 -0.06357719
-0.080189764 -0.19630511 -0.09536248 0.18847181 -0.118911654 -0.03153917 -0.110884614 -0.3427119
-0.01761585 0.030861361 0.029519571 -0.023693185 -0.17128572 -0.018671421 0.015648536 -0.06464985
0.32441548 0.15115613 -0.16063033 0.0257001 -0.2162923 -0.33444473 -0.17956962 0.25147137
0.37605372 -0.7054561 -0.0049376627 0.10501928 0.08951026 0.21045828 0.2807568 -0.04409206
-0.09580837 -0.004421981 -0.18841672 0.032313347 -0.00017038528 -0.28603208 -0.12500648 0.20526925
-0.23891623 -0.19094992 0.15002555 -0.26706108 -0.26492646 -0.23401864 -0.41584757 -0.14387706
0.004763967 -0.36103177 -0.3397685 -0.2602971 -0.28523776 0.050296124 -0.306939 0.28132653
0.1767309 0.05638853 -0.018365363 0.08787504 0.2243485 -0.07266815 -0.06777222 -0.23311535
0.08215537 -0.008322023 0.06126035 0.038084038 0.022008486 0.07792569 -0.070827745 0.058757342
0.06532163 0.10338566 -0.080429874 -0.23672856 -0.14095852 -0.003728107 0.02365647 -0.22776443
0.09660802 0.046978578 -0.03953156 0.041129194 0.06622771 -0.048254143 -0.023048759 0.013178356
0.06185954 0.05487574 0.009319983 0.16508995 0.13008456 -0.012543006 -0.13855413 0.15767995
-0.12903586 -0.5157231 -0.32539022 -0.09076964 -0.09567785 -0.3974997 -0.29270223 0.14571172
00000000: bf6e 313d b707 b43b 6c1e a93c 9ecd aebd
00000010: 88ff 253d 7db4 8a3b ded8 5a3d 12c8 e6bd
00000020: bd4c fbbd f288 d8bc 99f8 1c3d 9698 783d
00000030: 091b a7bd 488e e3bd 6e49 1bbd b91e 933d
00000040: c71c dcbd 310d 8cbe b14d 0c3e 3d63 61be
00000050: ee52 edbc 61ec 91be b1ac 42bc 8a3a 1e3d
00000060: 0ac6 c0bd e89f 37bb e91f 6e3b 0f1a 16be
00000070: bd9c 1dbc cf75 6cbd b842 1c3e f50e 173f
00000080: 1456 b13e e0f9 103e 201c c13e a177 4bbe
00000090: 96ae 04be 1470 c1bd c952 f6bc 7b10 5ebd
000000a0: 29bd d13d 69e5 c93d 6cb6 34bd 670e e2bd
000000b0: d717 84bd faad f3bd 2b23 273e 4918 373e
000000c0: 383f b23d 7c2f d93d a069 ca3d 13be 5d3d
000000d0: 8028 a6bd ea53 e9bb 76cb f13d be03 b6bd
000000e0: 7503 c53e 6380 6e3d e023 ef3e 5004 0c3f
000000f0: 2c29 883d 1cf9 323e e04b 923d fd35 57bd
00000100: 3de7 67be 6956 73be 02c4 163c 3430 efbd
00000110: 5787 20bd 0e44 453e 87e5 883c 406a 4b3e
00000120: 1a28 6e3d 08ca 71bc 00cc bc38 b106 893d
00000130: 32da a9bd 8357 90bd c4b5 e43c 83db 9b3d
00000140: 8c90 c5bc 2bc6 673e 91af 233e 9de1 c93e
00000150: 042b 2abd ec9e 74be 6372 0e3e 3c46 11bc
00000160: f681 adbd 6454 32be 90e9 f53c 583b 7e3c
00000170: 53c2 3bbd e4f0 ba3c 2c17 b63c ca00 193d
00000180: cb84 83bd 986e 3e3c 3a63 533d d21f cbbd
00000190: 4ab8 b2be f058 85be 643a 73be 52c0 5cbe
000001a0: 3470 093e d23f 8b3e a763 0f3e e5c2 293e
000001b0: 34fd 68be 2424 38be 47a0 353e 6326 99bd
000001c0: 9b0f efbd e791 2a3e ffa1 d4bd 6d56 51bd
000001d0: 0066 1e3e 283a 533d ce51 41bd c1d4 03bd
000001e0: 7682 77bc 9375 a83d c1f4 a73d 68d6 443c
000001f0: 7006 a73c 8e4b 7e3d f833 453e 0782 af3d
00000200: 33a9 eabd c468 d2bc 1df8 9d3d cef6 213e
00000210: 5b27 1ebd 643d 89bd 14ef 6ebe 8dbc 843d
00000220: 9157 313e 198d cc3e e633 703b 2b5d c0bd
00000230: 0ddf 6bbd 8582 433e 8a20 09bd 06fb 81be
00000240: 542f 6d3d a1df 44be 423d 8fbe 433c 21bd
00000250: 5aff 7e3d 8e6a 40bd f089 5fbe c234 82bd
00000260: 883a a4bd 3504 49be 674d c3bd c1fe 403e
00000270: f487 f3bd 372f 01bd 7917 e3bd ef77 afbe
00000280: 1d4f 90bc f7d0 fc3c 07d3 f13c 3618 c2bc
00000290: 8665 2fbe cff4 98bc 5c31 803c 2467 84bd
000002a0: c919 a63e acc8 1a3e 477c 24be 0489 d23c
000002b0: bb7b 5dbe 573c abbe 19e1 37be dbc0 803e
000002c0: 1d8a c03e c598 34bf 1ecc a1bb 5914 d73d
000002d0: 2851 b73d 6082 573e 5bbf 8f3e e099 34bd
000002e0: 2e37 c4bd 44e6 90bb 50f0 40be 005b 043d
000002f0: 73a9 32b9 cc72 92be b301 00be 1a32 523e
00000300: 75a6 74be 6088 43be 4ca0 193e 3bbc 88be
00000310: 71a4 87be 95a2 6fbe f9e9 d4be 8254 13be
00000320: 0d1b 9c3b 28d9 b8be 23f6 adbe a945 85be
00000330: af0a 92be 4f03 4e3d 1c27 9dbe 080a 903e
00000340: f2f8 343e a9f7 663d f572 96bc d4f7 b33d
00000350: 9dbb 653e 0ad3 94bd 29cc 8abd cab5 6ebe
00000360: 1341 a83d 1859 08bc 22ec 7a3d 02fe 1b3d
00000370: 244b b43c 8197 9f3d 230e 91bd 8aab 703d
00000380: 59c7 853d dcbb d33d 6bb8 a4bd f968 72be
00000390: 6e57 10be 4253 74bb 37cb c13c 143b 69be
000003a0: 6dda c53d 9c6c 403d d8eb 21bd 1677 283d
000003b0: 65a2 873d 23a6 45bd c0d0 bcbc 08ea 573c
000003c0: 6e60 7d3d 62c5 603d d8b2 183c 570d 293e
000003d0: e334 053e 2e81 4dbc 22e1 0dbe da76 213e
000003e0: fa21 04be 6e06 04bf 8c99 a6be 6fe5 b9bd
000003f0: c0f2 c3bd 1585 cbbe 11dd 95be 7435 153e

conv2.bias f4 [32]
-0.08494385 0.20703465 0.043255594 0.0014833744 -0.13616897 -0.070985496 -0.0013830273 -0.06083813
-0.13109018 0.14193024 0.023112023 -0.053394657 0.123650715 -0.055221863 -0.07246185 -0.21074244
-0.088885315 -0.010537999 0.005075689 -0.1280001 0.040443905 -0.16818964 -0.08512523 -0.07281298
-0.074060574 -0.029836686 0.06517563 -0.003010981 -0.07752496 -0.049175322 0.055949558 -0.037523672
00000000: 0bf7 adbd e400 543e c72c 313d c96d c23a
00000010: e16f 0bbe d860 91bd b246 b5ba 6731 79bd
00000020: 813c 06be 2956 113e 6d55 bd3c 5bb4 5abd
00000030: 963c fd3d 5230 62bd e166 94bd decc 57be
00000040: 8109 b6bd 92a7 2cbc f751 a63b 7512 03be
00000050: 82a8 253d e839 2cbe 2356 aebd f91e 95bd
00000060: 12ad 97bd 116c f4bc cd7a 853d e153 45bb
00000070: 68c5 9ebd 106c 49bd 5d2b 653d 6cb2 19bd

fc1.weight f4 [256, 512]
0.035344966 0.020279957 -0.019640237 -0.0572521 -0.020410955 0.07178843 0.14388855 -0.0103992
-0.044258494 0.12747212 0.08264918 -0.3408893 0.106422246 0.169274 0.11182329 -0.21692052
-0.025489982 -8.1741884e-05 0.03275186 0.07488931 0.07504904 -0.09590572 -0.23056819 0.100908905
-0.12700582 -0.19608943 0.1558391 0.11518572 0.051575307 0.055960927 -0.12002986 0.1378844
-0.25747147 0.118609734 -0.073367946 -0.03142825 0.007436648 -0.3741467 -0.07016862 -0.049990278
0.041086122 0.08249361 -0.049022045 0.037634812 0.06749209 0.10999558 0.047317054 0.14797412
0.14092413 0.0471739 -0.0738718 0.03851109 0.045362618 0.09337509 -0.0030111943 0.04973553
0.012264249 -0.18611084 -0.16913901 -0.019085862 -0.009722088 0.08175895 -0.006860833 -0.16235434
0.1236235 -0.09106097 -0.052791607 -0.13037765 -0.30826443 -0.19930121 0.0076015284 -0.14363997
-0.12832245 0.27452356 0.0115206605 -0.27944183 -0.05628233 0.1285664 0.029781353 -0.009067156
0.112848304 -0.08860658 -0.15792905 0.08449927 -0.09548967 0.1639972 0.12165163 -0.123378746
0.1003446 0.12393676 0.024945918 -0.12762228 -0.040419295 -0.10343881 -0.091785446 0.15707234
-0.27921507 -0.5837795 -0.20931663 -0.16205512 -0.054748513 0.14540161 -0.20814231 -0.16906388
-0.10599487 0.13371755 0.1451425 0.006621713 0.0010778231 0.1970688 0.16114502 0.020807104
-0.00801389 -0.016201766 0.063720465 -0.074363545 0.004326347 -0.19813992 -0.073564835 0.046351507
0.1508038 -0.1492001 0.21813808 -0.04786211 0.021220395 0.010609097 0.28924325 0.041639954
-0.078751594 -0.19159043 -0.28804415 0.03756179 -0.14950643 -0.055922687 0.1076502 0.040646456
-0.08872345 0.2379502 0.018823296 -0.13216287 0.021510009 -0.0030430763 -0.27779114 -0.10694225
-0.005727524 0.00964555 -0.07241497 0.08727395 -0.17148544 0.049651116 0.027014205 0.13523011
-0.068618566 0.18947667 0.08731332 0.07599791 0.08951897 0.05489547 -0.14052646 -0.22681236
-0.03008401 -0.09126284 -0.121000804 -0.10297029 0.030666146 0.008484596 0.07068172 -0.14337903
0.32694715 -0.17555419 -0.24831896 -0.038485903 0.098844595 -0.09244704 -0.06068852 0.2467155
0.13960959 0.08695215 0.34986988 0.2313536 0.05809118 0.04113531 -0.071151935 -0.015528454
-0.20638224 -0.10190809 -0.1226707 0.017795397 -0.016314609 0.06746485 0.26317912 -0.3373324
0.046831906 0.09844215 0.12031309 0.036761243 0.030044759 0.10569688 0.016260326 0.013015793
0.17252009 -0.06802005 -0.4719586 -0.2141164 0.033326272 -0.10316115 0.019432848 0.18329787
0.004738969 0.038612172 -0.021572134 -0.039631724 -0.032288004 0.021286437 0.06046632 0.05990886
0.03743422 0.016341189 -0.037337665 0.035762876 0.06900163 0.06957971 0.0227388 0.026198361
-0.14670403 -0.14904796 -0.05798287 0.098191835 0.12034012 0.07180926 -0.28223556 -0.104189396
-0.062260166 -0.056871522 0.09353652 -0.12330224 0.19444805 0.058141682 0.15149316 -0.1084663
-0.02742307 -0.12653904 -0.23014323 -0.11363897 -0.019493813 0.12987247 -0.004289231 -0.14441578
0.027158264 0.005934498 0.0623539 -0.08836357 0.14993505 0.19108087 0.24538366 -0.084583156
00000000: e2c5 103d 2722 a63c 90e4 a0bc 2e81 6abd
00000010: e034 a7bc d005 933d 8557 133e 6861 2abc
00000020: 6548 35bd 0d88 023e f943 a93d 0b89 aebe
00000030: e8f3 d93d 2a56 2d3e 9c03 e53d 6a20 5ebe
00000040: 5ed0 d0bc d76c abb8 d026 063d 915f 993d
00000050: 50b3 993d 386a c4bd 111a 6cbe 54a9 ce3d
00000060: d00d 02be abcb 48be 4994 1f3e 7ee6 eb3d
00000070: a140 533d 4937 653d 37d2 f5bd 9131 0d3e
00000080: 4dd3 83be a9e9 f23d ef41 96bd e9ba 00bd
00000090: 20af f33b 2890 bfbe 91b4 8fbd 9bc2 4cbd
000000a0: ec49 283d 69f2 a83d 57cb 48bd f626 1a3d
000000b0: 4b39 8a3d 5d45 e13d 87cf 413d 8786 173e
000000c0: 6a4e 103e 6b39 413d 194a 97bd cebd 1d3d
000000d0: 27ce 393d 703b bf3d 7557 45bb 7cb7 4b3d
000000e0: fdef 483c d793 3ebe c732 2dbe f459 9cbc
000000f0: 6549 1fbc 3d71 a73d d7d0 e0bb 3740 26be
00000100: 512e fd3d 2d7e babd 033c 58bd b881 05be
00000110: d6d4 9dbe 9e15 4cbe 3e16 f93b 5b16 13be
00000120: f666 03be 5a8e 8c3e 27c1 3c3c 0013 8fbe
00000130: 4d88 66bd e9a6 033e 06f8 f33c 698e 14bc
00000140: 031d e73d 5e77 b5bd 27b8 21be f40d ad3d
00000150: 1790 c3bd e2ee 273e 7d24 f93d ffad fcbd
00000160: 7881 cd3d 8ed2 fd3d 625b cc3c 6aaf 02be
00000170: b48e 25bd bad7 d3bd 02fa bbbd 92d7 203e
00000180: 47f5 8ebe 9372 15bf 1957 56be c7f1 25be
00000190: fa3f 60bd 29e4 143e 4223 55be 151f 2dbe
000001a0: d713 d9bd 41ed 083e 3ca0 143e f4fa d83b
000001b0: be45 8d3a 67cc 493e 3303 253e a973 aa3c
000001c0: b14c 03bc 91b9 84bc e07f 823d ea4b 98bd
000001d0: 07c4 8d3b 31e5 4abe 29a9 96bd 14db 3d3d
000001e0: 506c 1a3e e9c7 18be 975f 5f3e 0f0b 44bd
000001f0: 65d6 ad3c c7d1 2d3c b117 943e a88e 2a3d
00000200: 8448 a1bd 4830 44be 867a 93be 64da 193d
00000210: 3718 19be 300f 65bd b577 dc3d e67c 263d
00000220: a4b4 b5bd 38a9 733e 5033 9a3c b455 07be
00000230: c235 b03c 596e 47bb a43a 8ebe 8a04 dbbd
00000240: f4ad bbbb 5e08 1e3c 4d4e 94bd afbc b23d
00000250: e199 2fbe f85e 4b3d e54c dd3c c379 0a3e
00000260: e487 8cbd 2c06 423e 53d1 b23d cba4 9b3d
00000270: b955 b73d 13da 603d 2be6 0fbe 8041 68be
00000280: be72 f6bc 03e8 babd 45cf f7bd 16e2 d2bd
00000290: 9237 fb3c fa02 0b3c 94c1 903d f4d1 12be
000002a0: 9e65 a73e 7ac4 33be 5347 7ebe 65a3 1dbd
000002b0: 096f ca3d e054 bdbd 8794 78bd fda2 7c3e
000002c0: d1f5 0e3e f813 b23d 2522 b33e f5e7 6c3e
000002d0: 04f1 6d3d 807d 283d 1bb8 91bd 0f6b 7ebc
000002e0: de55 53be 30b5 d0bd c73a fbbd a7c7 913c
000002f0: 37a6 85bc 032b 8a3d 6abf 863e d5b6 acbe
00000300: d0d2 3f3d 0a9c c93d b666 f63d f592 163d
00000310: 6d20 f63c 9b77 d83d 6034 853c 3140 553c
00000320: 1ba9 303e 194e 8bbd 8fa4 f1be 5441 5bbe
00000330: 2181 083d 2746 d3bd a331 9f3c 70b2 3b3e
00000340: 5a49 9b3b cc27 1e3d 0bb8 b0bc e054 22bd
00000350: 6d40 04bd e560 ae3c 88ab 773d fe62 753d
00000360: a054 193d f5dd 853c 61ef 18bd 187c 123d
00000370: ba50 8d3d cf7f 8e3d b846 ba3c f29d d63c
00000380: 9539 16be 07a0 18be 727f 6dbd cd18 c93d
00000390: e174 f63d bc10 933d 2e81 90be 4061 d5bd
000003a0: 8404 7fbd 1df2 68bd 1390 bf3d e385 fcbd
000003b0: 641d 473e f925 6e3d 0621 1b3e 9423 debd
000003c0: 59a6 e0bc 7393 01be abaa 6bbe 8cbb e8bd
000003d0: 7db1 9fbc 4afd 043e ad8c 8cbb bbe1 13be
000003e0: 027b de3c 2d76 c23b ce66 7f3d f6f7 b4bd
000003f0: 9388 193e b4aa 433e db45 7b3e ef39 adbd

fc1.bias f4 [256]
-0.10247945 -0.0457636 -0.016907185 -0.026030846 -0.02368602 0.15719408 -0.043107618 -0.10363176
0.016983515 -0.06570554 -0.04226049 0.104143 -0.087693125 0.014597229 -0.01252877 0.108894825
-0.11133152 -0.047771554 -0.03368321 0.124198124 0.14019209 0.111935265 0.2024748 0.13628313
0.001909542 0.03409381 -0.09361738 -0.11741468 -0.10853197 -0.02380448 -0.023150988 0.033112735
-0.18691652 -0.14995457 -0.043606013 -0.15802938 -0.071954235 -0.14725313 -0.12462604 0.0732953
0.13181446 0.09925967 0.15494856 -0.12675868 -0.0076244404 -0.005687992 -0.17002432 0.11285776
0.02375501 0.08081579 -0.061814245 -0.030283539 0.14652437 0.08151215 -0.010096238 -0.028713003
-0.13305916 0.0033331043 0.17428501 0.0849008 0.15176791 -0.11830034 -0.07474935 0.0678658
-0.09017649 -0.022325106 -0.10867461 -0.06962052 -0.10566322 -0.11325906 -0.111633085 0.10541994
0.16860065 -0.026182994 0.006952179 -0.037633523 -0.16096686 -0.069426365 -0.08578785 0.13583155
-0.16703124 -0.038925216 -0.0032850872 0.08906461 0.17035131 -0.1132989 -0.016030248 0.005892606
-0.007714934 0.009583843 -0.14043342 0.12234865 -0.07524269 0.030544968 -0.076379046 -0.060930647
0.06676991 -0.15662703 -0.048456684 -0.071801126 -0.08968715 -0.06162735 -0.07663205 -0.07834782
0.15765184 -0.06912818 -0.0078064236 -0.024115078 -0.09506676 0.102574185 -0.034010824 0.12604803
-0.14509454 -0.09634684 -0.07187895 -0.12418267 -0.060696095 0.20060658 -0.06757753 -0.060650624
0.22891878 -0.02299651 0.16346222 0.20154007 -0.07566496 -0.025783138 0.12811072 -0.11656522
-0.07886595 0.1477818 -0.14977212 -0.047343656 -0.06534134 -0.023845078 -0.074285805 0.13631967
0.025964335 0.08011529 0.107856266 0.14777872 -0.10155978 -0.018685874 0.11386479 -0.051443193
0.14270589 -0.059015017 0.005070419 -0.1379274 -0.071244515 0.12038543 0.003700448 0.17028312
0.10273146 -0.052887697 0.018437857 -0.1891528 -0.04393987 0.099714525 -0.1241837 -0.040338848
0.17783771 0.17389005 -0.09133683 -0.057275344 -0.03542834 -0.054567944 0.07623231 -0.14419551
0.016783956 -0.11593598 0.088179566 -0.08263758 -0.018334473 0.15525149 -0.02969509 -0.037526563
0.16246298 0.12220125 0.16934185 0.1521032 0.010671169 -0.03506062 0.085217796 -0.06279311
-0.14748947 -0.04209527 -0.04210123 -0.15059341 -0.07010851 -0.1074386 0.12273454 -0.03999517
-0.119416565 -0.04412532 -0.004565959 0.16709259 -0.006162216 -0.04073829 0.052462067 0.140387
-0.02794947 0.11978849 0.09091636 -0.051787987 0.15254879 -0.14013502 -0.08102544 -0.13000858
-0.09469387 0.15155083 0.15386812 0.08741086 0.0059723686 -0.07852113 0.1653922 -0.040137008
0.014222284 -0.06742415 -0.05707896 -0.005815091 0.08602758 -0.074208185 -0.09422883 -0.043247983
-0.055603955 0.075866036 -0.022548513 -0.096367255 0.14563254 -0.107936844 -0.0478743 -0.006820499
-0.06284021 0.13390544 -0.036765475 0.15244733 -0.15536249 -0.04782016 -0.05754361 -0.14236063
-0.10493389 0.006888749 -0.013026733 -0.00438533 -0.06887555 -0.04447934 0.07458852 -0.048908662
-0.117531516 -0.053439263 -0.04605896 0.06167647 -0.0062798234 -0.10986906 0.01654055 0.17259285
00000000: bfe0 d1bd 9d72 3bbd f080 8abc a43e d5bc
00000010: 2f09 c2bc 7cf7 203e 9d91 30bd e33c d4bd
00000020: 0321 8b3c a090 86bd 5619 2dbd ed48 d53d
00000030: 7498 b3bd 3729 6f3c 7845 4dbc 4004 df3d
00000040: c801 e4bd 1bac 43bd 68f7 09bd 965b fe3d
00000050: 848e 0f3e 513e e53d 8e55 4f3e ce8d 0b3e
00000060: 9949 fa3a f3a5 0b3d 78ba bfbd 1c77 f0bd
00000070: 0246 debd 9d01 c3bc 24a7 bdbc 38a1 073d
00000080: 0b67 3fbe b18d 19be 389c 32bd 74d2 21be
00000090: be5c 93bd 86c9 16be f03b ffbd d91b 963d
000000a0: 5ffa 063e a748 cb3d d6aa 1e3e 07cd 01be
000000b0: 71d6 f9bb 5662 babb db1a 2ebe f821 e73d
000000c0: de99 c23c c082 a53d ef30 7dbd 2f15 f8bc
000000d0: 7c0a 163e d8ef a63d b16a 25bc 8837 ebbc
000000e0: a940 08be 3670 5a3b c577 323e 78e0 ad3d
000000f0: 0c69 1b3e 7347 f2bd 3016 99bd 39fd 8a3d
00000100: 74ae b8bd 24e3 b6bc cb90 debd 3495 8ebd
00000110: f565 d8bd 5ef4 e7bd e39f e4bd 69e6 d73d
00000120: a6a5 2c3e b87d d6bc 1bcf e33b 9c25 1abd
00000130: 7fd4 24be 692f 8ebd 8ab1 afbd 6d17 0b3e
00000140: 3d0a 2bbe 0c70 1fbd 9e4a 57bb 8267 b63d
00000150: 9370 2e3e 4109 e8bd de51 83bc c316 c13b
00000160: 8fcd fcbb 8d05 1d3c c7cd 0fbe ee91 fa3d
00000170: d718 9abd 7139 fa3c 9e6c 9cbd 6a92 79bd
00000180: aabe 883d d662 20be 847a 46bd 780c 93bd
00000190: e6ad b7bd f66c 7cbd 44f1 9cbd d274 a0bd
000001a0: 7c6f 213e 1393 8dbd 07cd ffbb fc8c c5bc
000001b0: 5db2 c2bd 6a12 d23d ef4e 0bbd bc12 013e
000001c0: aa93 14be 7e51 c5bd 4535 93bd 7c53 febd
000001d0: 789c 78bd d06b 4d3e 1766 8abd ca6c 78bd
000001e0: af69 6a3e 2d63 bcbc a462 273e 8560 4e3e
000001f0: 3bf6 9abd 2937 d3bc 752f 033e bfb9 eebd
00000200: 7984 a1bd 1d54 173e dd5d 19be 6ceb 41bd
00000210: aed1 85bd c156 c3bc 2823 98bd 6297 0b3e
00000220: 28b3 d43c 7c13 a43d bfe3 dc3d 4e53 173e
00000230: 93fe cfbd 1e13 99bc f131 e93d 19b6 52bd
00000240: 7e21 123e bbb9 71bd c225 a63b d73c 0dbe
00000250: a5e8 91bd a38c f63d 3783 723b b35e 2e3e
00000260: df64 d23d c5a0 58bd fd0a 973c 46b1 41be
00000270: 4bfa 33bd 2137 cc3d 0654 febd 593a 25bd
00000280: 171b 363e 3c10 323e ce0e bbbd 8d99 6abd
00000290: 4f1d 11bd a382 5fbd af1f 9c3d fda7 13be
000002a0: 827e 893c d86f edbd 7d97 b43d e43d a9bd
000002b0: 2d32 96bc 3ffa 1e3e 1e43 f3bc 74b5 19bd
000002c0: b25c 263e a644 fa3d f367 2d3e f1c0 1b3e
000002d0: 20d6 2e3c ba9b 0fbd ab86 ae3d ad99 80bd
000002e0: 7b07 17be 176c 2cbd 5772 2cbd 2935 1abe
000002f0: 0d95 8fbd c508 dcbd 3f5c fb3d fad1 23bd
00000300: ac90 f4bd c0bc 34bd 0a9e 95bb 521a 2b3e
00000310: 6aec c9bb 31dd 26bd 77e2 563d 9cc1 0f3e
00000320: 49f6 e4bc ab53 f53d 5b32 ba3d a41f 54bd
00000330: c035 1c3e 8e7f 0fbe aaf0 a5bd f820 05be
00000340: dcee c1bd 2430 1b3e 9b8f 1d3e 7704 b33d
00000350: dcb3 c33b b0cf a0bd 935c 293e b466 24bd
00000360: 9504 693c ac15 8abd a1cb 69bd 858c bebb
00000370: 3a2f b03d 76fa 97bd 0bfb c0bd cc24 31bd
00000380: f9c0 63bd a75f 9b3d a9b7 b8bc 325c c5bd
00000390: b220 153e fe0d ddbd d817 44bd 7e7e dfbb
000003a0: 5eb2 80bd 821e 093e 6597 16bd 271b 1c3e
000003b0: 5817 1fbe 12df 43bd d9b2 6bbd fcc6 11be
000003c0: 94e7 d6bd 04bb e13b 146e 55bc d0b2 8fbb
000003d0: a00e 8dbd f82f 36bd dec1 983d 7354 48bd
000003e0: 5db4 f0bd 21e3 5abd 52a8 3cbd 77a0 7c3d
000003f0: fac6 cdbb 0803 e1bd 0c80 873c 2ebc 303e

fc2.weight f4 [2, 256]
-0.113382794 -0.057472665 -0.0022931665 0.03810047 0.0020842934 0.65259606 -0.024615427 -0.16157699
0.020475546 -0.023683332 0.016656721 0.549952 0.03936604 0.0015817865 0.009926587 0.083961524
-0.08149074 -0.5320163 -0.10750354 0.5767886 0.40371028 0.31728962 0.061911806 0.044427887
-0.016057191 0.5284908 -0.19304955 -0.47870103 -0.10564859 0.0059820344 -0.16035418 -0.034480203
-0.2666112 -0.28654775 0.03926778 -0.2198286 -0.12880714 -0.2525 -0.97885114 0.576403
0.18249986 0.06735705 0.13336973 -0.11321183 0.012484007 0.031648587 -0.117265396 0.48483524
0.45712507 0.33143845 -0.08634056 0.050402254 0.0031780943 0.35341012 -0.0034244824 0.019031838
0.005750931 -0.49921602 0.52657527 -0.008611555 0.5356046 0.039468605 -0.3107325 0.028632313
-0.38063714 -0.032747917 -0.36414555 0.0013215402 -0.13487752 -0.079491064 -0.53745985 -0.03451467
0.49436232 0.016560152 0.028809048 -0.38645202 -0.058851108 -0.1263346 -1.0285201 0.7149437
-0.081755556 -0.0011492453 -0.02685265 0.37629607 0.09471797 -0.85363024 -0.042377062 -0.48106354
0.040289927 -0.01738819 -0.46566597 0.0001224388 -0.09977189 0.0035490303 -0.13258813 -0.6420767
0.02262348 -0.009468864 0.046149164 -0.010788626 -0.045752183 0.07876614 -0.31642273 -0.2042577
0.135723 -0.021708848 0.005411767 0.006602729 -0.07126685 0.28783762 -0.0129267955 0.2841756
-0.2964121 -0.024296224 -0.18062924 -0.036724407 -0.0038039642 0.07852376 -0.26636165 0.0023712965
0.90607685 -0.035951667 0.29134625 0.045630686 -0.2906332 0.046265963 0.35056317 -0.2114479
-1.0334867 0.020668656 -0.06977397 -0.16510074 -0.07828733 0.047370307 -0.039866887 -0.01796126
0.05517484 -0.009987208 0.28763175 0.12112135 0.015930494 -0.010545648 0.24059598 -0.048989203
0.25251684 -0.34848878 0.009657806 -0.0022950543 -0.40090168 0.23232195 -0.013251302 0.21475208
0.5606162 -0.028904406 -0.049528364 -0.0013468411 -0.085729875 0.4914473 -0.16428539 -0.04163338
0.49459007 0.06657727 -0.72345555 -0.68355 0.022195168 -0.028555399 0.094070934 -0.16744286
-0.035820227 -0.11630728 0.025903363 -0.03395827 0.039927423 0.17703445 0.011531227 0.027101249
0.22621267 0.58729315 0.027307214 0.057093624 -0.049469016 -0.026312415 -0.014164071 0.0074785403
-0.20723575 0.025742419 -0.33814704 -0.6544651 -0.016110526 -0.045565233 0.014150917 -0.053127967
-0.053548846 0.01304004 0.038426887 0.6607699 0.01091722 0.0074434066 0.014746175 0.22317961
-0.061656907 -0.038156103 0.043256752 0.019647228 0.02297272 -0.30088156 -0.16631168 -0.27782664
-0.55125415 0.39735425 0.0069456105 0.019615708 -0.009885931 -0.01344125 0.5098897 -0.09937917
-0.025576808 -0.053239636 -0.040320832 -0.021568285 0.05482494 0.013737693 -0.1111472 -0.01761987
0.0013735469 -0.037797935 -0.31980702 -0.29331776 0.029477632 -0.028908709 -0.42109603 0.056090202
-0.3784054 0.031094724 2.7687087e-05 0.42716295 0.039666433 -0.2933973 0.0036089597 -0.30372822
0.03608976 0.016038643 0.037721008 0.018386569 -0.09195545 -0.5615167 0.035308838 -0.6344292
-0.16748767 -0.021949522 -0.01580173 0.052227188 -0.05429823 -0.25385088 -0.052948996 0.34522897
00000000: 3d35 e8bd 7568 6bbd f348 16bb 3d0f 1c3d
00000010: a498 083b 8910 273f 4ba6 c9bc 7074 25be
00000020: 55bc a73c 8c03 c2bc ad73 883c a7c9 0c3f
00000030: 493e 213d f353 cf3a 20a3 223c 05f4 ab3d
00000040: 9ee4 a6bd 3832 08bf d12a dcbd 6ba8 133f
00000050: 1db3 ce3e c973 a23e 3c97 7d3d 04fa 353d
00000060: 5f8a 83bc 2c4b 073f c8ae 45be 4d18 f5be
00000070: 4a5e d8bd f104 c43b e333 24be 1d3b 0dbd
00000080: 4381 88be 63b6 92be 40d7 203d c01a 61be
00000090: 05e6 03be ae47 81be fd95 7abf 268f 133f
000000a0: 3ee1 3a3e 7ef2 893d 1392 083e 9bdb e7bd
000000b0: b889 4c3c f3a1 013d d728 f0bd 533c f83e
000000c0: 4c0c ea3e 4db2 a93e 52d3 b0bd 9872 4e3d
000000d0: 9347 503b 2cf2 b43e 486d 60bb a8e8 9b3c
000000e0: 4e72 bc3b 3e99 ffbe a3cd 063f 7b17 0dbc
000000f0: 621d 093f d5a9 213d 5518 9fbe 508e ea3c
00000100: dfe2 c2be ae22 06bd 4971 babe 8837 ad3a
00000110: 551d 0abe 36cc a2bd f896 09bf 415f 0dbd
00000120: 0f1d fd3e 28a9 873c f400 ec3c 0add c5be
00000130: dc0d 71bd db5d 01be 8ca6 83bf 8d06 373f
00000140: 756f a7bd 46a2 96ba 17fa dbbc e1a9 c03e
00000150: 7ffb c13d 8387 5abf 9293 2dbd f64d f6be
00000160: 0d07 253d ad71 8ebc c56b eebe ea62 0039
00000170: 3455 ccbd d996 683b 2fc5 07be 235f 24bf
00000180: e054 b93c 4b23 1bbc e806 3d3d c7c2 30bc
00000190: a466 3bbd 2450 a13d 2902 a2be ee28 51be
000001a0: f8fa 0a3e c1d6 b1bc 3155 b13b b55b d83b
000001b0: 5bf4 91bd 745f 933e e9ca 53bc 777f 913e
000001c0: 54c3 97be e008 c7bc dff6 38be 556c 16bd
000001d0: ee4b 79bb 11d1 a03d 8e60 88be c167 1b3b
000001e0: a7f4 673f 0e42 13bd 562b 953e 3ee7 3a3d
000001f0: e0cd 94be 6181 3d3d 047d b33e cc85 58be
00000200: 4b49 84bf 5051 a93c a8e5 8ebd 2b10 29be
00000210: 1c55 a0bd 5e07 423d 764b 23bd 7e23 93bc
00000220: 03ff 613d 63a1 23bc 7844 933e 780e f83d
00000230: ab80 823c a7c7 2cbc cb5e 763e e7a8 48bd
00000240: e349 813e 1f6d b2be c63b 1e3c 9f68 16bb
00000250: fc42 cdbe cee5 6d3e fd1b 59bc f8e7 5b3e
00000260: 8b84 0f3f efc8 ecbc 41de 4abd 7d88 b0ba
00000270: 2593 afbd fb9e fb3e 6e3a 28be c387 2abd
00000280: e93a fd3e aa59 883d 6234 39bf 22fd 2ebf
00000290: a4d2 b53c 03ed e9bc 43a8 c03d 2476 2bbe
000002a0: 3bb8 12bd 8332 eebd 4a33 d43c d417 0bbd
000002b0: f08a 233d 8548 353e 79ed 3c3c 7003 de3c
000002c0: 4ba4 673e d858 163f 61b3 df3c 01db 693d
000002d0: 06a0 4abd 228d d7bc 6b10 68bc 8b0e f53b
000002e0: 9c35 54be c4e1 d23c 9c21 adbe 068b 27bf
000002f0: 39fa 83bc 9ca2 3abd 3fd9 673c b69c 59bd
00000300: 0956 5bbd e4a5 553c 8365 1d3d 3728 293f
00000310: 24de 323c d2e7 f33b f199 713c 3289 643e
00000320: f48b 7cbd 9349 1cbd fe2d 313d 39f3 a03c
00000330: 4931 bc3c 260d 9abe 9c4d 2abe 4b3f 8ebe
00000340: fe1e 0dbf 0472 cb3e 0198 e33b 1fb1 a03c
00000350: 9af8 21bc b038 5cbc 2288 023f 4e87 cbbd
00000360: 7486 d1bc ce11 5abd 7527 25bd f9af b0bc
00000370: 1e90 603d 1014 613c 25a1 e3bd 8c57 90bc
00000380: 9608 b43a 02d2 1abd bfbd a3be bf2d 96be
00000390: 137b f13c f5d1 ecbc e699 d7be d7be 653d
000003a0: 5abe c1be 5dba fe3c 9141 e837 1ab5 da3e
000003b0: 4579 223d 2c38 96be 4c84 6c3b 4482 9bbe
000003c0: dbd2 133d 7963 833c 5881 1a3d 6e9f 963c
000003d0: 2453 bcbd 8fbf 0fbf 00a0 103d f469 22bf
000003e0: e381 2bbe 7ccf b3bc a172 81bc 2dec 553d
000003f0: d267 5ebd bef8 81be 0ce1 58bd dac1 b03e

fc2.bias f4 [2]
0.20802332 -0.17782544
00000000: 1104 553e df17 36be
