Saved Models/model2.pt (torch, 549487 bytes, 8 tensors)

conv1.weight f4 [16, 1, 3, 3]
000000 e9 4c b4 be 4d d4 eb be d5 c0 91 3e cf 0f 89 be
       -0.35214928 -0.4606041 0.28467432 -0.26769873
000010 f7 c6 59 bd f3 d6 90 3e 7e 1e cf be b8 8a ec b9
       -0.053168263 0.28288993 -0.4045295 -0.0004511678
000020 19 6c fa bd 09 f2 57 3a a3 d6 92 3e 16 24 01 3f
       -0.12227649 0.0008237665 0.2867938 0.5044569
000030 f9 95 ef be 2d 48 16 bf d1 58 11 bd 83 26 b6 3e
       -0.46794108 -0.5870388 -0.035485093 0.35576257
000040 0e de 09 3e b6 9d 8b be 5b bd 2f be c0 94 c4 bc
       0.13463613 -0.2726876 -0.17162077 -0.02399671
000050 fc 1f 9b be 52 1b 69 3e 20 48 be bd 00 51 70 be
       -0.3029784 0.22764328 -0.092911005 -0.23468399
000060 00 75 92 bb 18 55 1a 3e d6 bd 84 be f9 49 e5 bd
       -0.004469514 0.15071523 -0.25926083 -0.1119575
000070 a4 08 d8 bc 45 77 31 3c 2e 4d ef bd a0 8d 33 be
       -0.026371308 0.010831659 -0.11684643 -0.17534494
000080 a6 d0 b3 bd d7 5c f1 b9 19 a6 80 be d3 24 09 3d
       -0.08780031 -0.00046036273 -0.25126722 0.033482384
000090 18 d4 d2 3d 97 6d 9a bd 33 53 ba bd 0e 70 64 bd
       0.1029436 -0.07540434 -0.090979 -0.055770926
0000a0 77 c3 8d 3c 36 d9 09 3e ac f4 08 3e 35 b5 13 be
       0.017305119 0.13461766 0.13374585 -0.14424594
0000b0 76 31 8c 3d 5d e8 85 be f3 a4 ae 3e 05 c8 70 3e
       0.068453714 -0.26153842 0.3411022 0.23513801
0000c0 07 68 92 be a8 9f 91 be c0 bd fe bd 70 7f be 3e
       -0.28594992 -0.2844212 -0.12438536 0.37206602
0000d0 1e 73 a1 bc aa 43 87 3e 9c 03 62 3d 74 27 30 3e
       -0.019708212 0.2641881 0.055179223 0.1720255
0000e0 36 6c 2f 3e e9 45 b4 3e 8c 2c 48 3e 70 55 3a 3e
       0.17131123 0.35209587 0.19548243 0.18196654
0000f0 f5 4b 07 bf 3d 2a 66 3d 23 bb 8e bc 95 7e 39 3e
       -0.52850276 0.056192625 -0.017423218 0.18114693
000100 2b d5 04 3f fe 3c 58 3e 16 5a b3 bd 84 5b a1 be
       0.5188777 0.21117017 -0.08757417 -0.31515133
000110 fa b1 70 3e 8b 36 51 be 68 96 0e bf 23 88 14 bf
       0.23505393 -0.20430963 -0.5569825 -0.5802023
000120 83 a3 2e 3f 8b 7a 3b bd e8 e0 16 bf bf e0 89 3d
       0.6821825 -0.045771163 -0.5893693 0.0673232
000130 42 58 7c be e0 39 09 bf b5 a5 ea 3d 19 7d d0 3e
       -0.24643043 -0.53603935 0.11457387 0.40720442
000140 48 a0 99 3b b3 dd 1f be 64 4c c6 3d 82 9d 0f 3e
       0.0046882965 -0.15611915 0.09682539 0.14024928
000150 f0 71 b9 bc ac 03 bb 3d 40 dc 5b be 40 4f 8b 3d
       -0.022637337 0.0913156 -0.21470737 0.06802225
000160 00 3d 95 bb 8e c1 a8 be fa 90 1b bf f6 97 26 be
       -0.004554391 -0.3296017 -0.6076809 -0.16268906
000170 b8 3a 03 3f 06 b5 09 bf 5c d1 cf 3e 37 f1 09 3e
       0.5126147 -0.53791845 0.40589416 0.13470922
000180 4f ae 41 3d 5a 49 38 3e 17 fe 2d bd 77 bd c0 be
       0.047285374 0.17996731 -0.042478647 -0.3764455
000190 87 ee 92 be 77 f9 bf be e6 6f 8a be 55 7f e6 3e
       -0.28697607 -0.37495014 -0.27038497 0.45019022
0001a0 a9 f0 9a 3e 31 99 8b 3e 97 b6 87 3e 2f 38 07 3f
       0.30261734 0.27265313 0.26506492 0.52820104
0001b0 2a 73 cc be 5c a3 74 bd 66 8b f2 be 63 17 d7 be
       -0.39931613 -0.059726104 -0.47371978 -0.4201003
0001c0 a2 fd c3 3c 57 07 b4 be 66 2a 9d bd 14 0b 03 3c
       0.023924652 -0.3516185 -0.076741025 0.007998247
0001d0 2d ef 19 bd 72 84 ed be 0b 61 85 be 71 1a 81 be
       -0.03758161 -0.4639011 -0.260506 -0.25215486
0001e0 83 f5 ad bd 97 f0 b8 be 81 1c 9a be 9a 85 ce 3e
       -0.08494093 -0.36121055 -0.30099872 0.40336305
0001f0 f2 c3 f6 3e 67 74 e9 3e 95 2b ff 3e df c7 92 3e
       0.4819637 0.4559662 0.49837938 0.28668115
000200 2e 62 b0 be f5 4f f9 3d 5f a6 38 3e 0f 80 32 bf
       -0.34449905 0.12173454 0.18032216 -0.6972665
000210 28 8e a0 3e c7 23 9f be 8b be 3c be d4 3b 22 be
       0.31358457 -0.31081983 -0.18432061 -0.15843135
000220 92 d1 3a 3d ab 71 38 be 9e c5 26 3e 24 79 31 be
       0.045610018 -0.18012111 0.16286322 -0.17331368
000230 a0 93 1f 3e 19 ea 8e 3e 62 34 7e 3e 16 9c 80 3e
       0.15583658 0.27912977 0.2482467 0.25119084

conv1.bias f4 [16]
000000 e1 81 bc 3e 04 4e a4 3d bb 1c 3a be 4d dc 1a 3c
       0.3681784 0.08022693 -0.18175022 0.009451938
000010 8c 44 27 be 52 ba 9b bd 43 1a 21 be 3c 3b 47 3e
       -0.16334742 -0.07603897 -0.15732674 0.1945619
000020 65 05 66 3d f6 2d bd bd 75 1a 3f 3d 35 97 3b be
       0.05615749 -0.09237282 0.04665609 -0.183194
000030 74 8b c2 3e ad 64 0f 3e a4 31 af 3d 3a a7 23 be
       0.3799702 0.14003249 0.0855439 -0.1598176

conv2.weight f4 [32, 16, 3, 3]
000000 ec 48 fa bc 9a 41 f7 bc 17 0a 8e bd c3 08 f2 bc
       -0.03055235 -0.030182648 -0.06935518 -0.029545194
000010 9e ae ef 39 de 06 18 bd 41 34 96 bd cd ee 9c bd
       0.00045715732 -0.037115924 -0.073341854 -0.07662735
000020 6d eb 1e bc 18 16 e3 bd ad ca 4f 3c 67 04 ca bc
       -0.009699685 -0.110881984 0.012682599 -0.024660302
000030 ce c4 e3 3c ae 0f 49 3d 7c 77 67 bd ad 5b 3c 3c
       0.027803805 0.04908722 -0.056510434 0.011496467
000040 14 c0 75 bd 44 d5 cc bd 3c 2b 9b bc 10 76 a1 3b
       -0.059997633 -0.10001615 -0.018941514 0.004927404
000050 ae 8d 84 bd 00 19 da 39 bc b4 99 bc 0b b4 96 bd
       -0.06472336 0.00041598827 -0.018762939 -0.07358559
000060 d7 e5 a6 bd 40 37 04 bd b3 65 8a 3d 90 cc 05 3d
       -0.08149307 -0.032279253 0.06757679 0.03266579
000070 fd ed dc bd c1 a9 26 3c 75 9f e6 3c e4 0e 20 bd
       -0.1078758 0.010172308 0.028152207 -0.0390767
000080 ed 7b cf bd f9 c5 b4 bd ff aa b2 3c c3 6d 8c 3c
       -0.10131059 -0.08826823 0.021810053 0.017142182
000090 8a e2 4e bd 74 eb 44 3c ee 0d 00 bd b6 80 89 bc
       -0.050509013 0.012019027 -0.031263284 -0.016785007
0000a0 30 15 ca bb c6 9d a8 bd 88 9e 31 3c a6 ce 46 bd
       -0.0061670765 -0.08233218 0.010841019 -0.04853692
0000b0 56 06 e2 bd 8a 00 b1 bd 82 d7 42 3c 12 03 ad bb
       -0.11036365 -0.08642681 0.011892201 -0.005279907
0000c0 59 e6 b7 bd 7d 65 a3 bb 55 1e d4 bd 0d 70 85 3d
       -0.08979482 -0.0049864636 -0.10357348 0.065155126
0000d0 db 2b 60 3d 44 07 76 bd d1 7e b0 bd 12 34 9d bd
       0.054729324 -0.060065523 -0.08617938 -0.07675947
0000e0 bc f3 24 3d 2a 27 e6 bc d8 a4 00 3c ae 90 8d bd
       0.040271506 -0.028094847 0.007851802 -0.06912361
0000f0 bb 39 d3 bd 39 5d cd bd 38 a9 d3 3c 4e 9c a4 3b
       -0.103137456 -0.100275464 0.025837526 0.005023516
000100 a2 80 dc 3c e2 22 6f bd 78 41 02 3d 7c be 37 3c
       0.026916806 -0.058382876 0.031800717 0.011214849
000110 ce e1 09 bc a2 32 d0 bd 6c de 1b 3d 8c 16 81 bd
       -0.008415652 -0.101659074 0.038053915 -0.063031286
000120 cc 23 8d bd f0 ba 92 bd 3c a1 4a 3d 0f 80 6b bc
       -0.06891593 -0.07164562 0.04947017 -0.014373793
000130 9e 57 4d 3d 5b 04 ab bd 4a f2 b7 bd 9d 62 ca bd
       0.050132386 -0.0835044 -0.0898176 -0.0988209
000140 8a dd c0 bd bd d9 88 3d 53 74 9b 3d 26 a0 32 bd
       -0.09417255 0.06682155 0.075905465 -0.04360976
000150 34 82 9c bc eb 62 47 bd 18 82 0a 3c 70 fa 98 bb
       -0.019105054 -0.04867832 0.008453868 -0.0046685264
000160 e0 d7 29 3c c6 d6 db bc c4 f5 6f 3d 8d de 5c 3c
       0.01036641 -0.02683581 0.05858399 0.013480795
000170 31 eb 32 bd 5a bc 95 bd c0 b0 65 bd 50 cd 83 bd
       -0.043681327 -0.07311316 -0.056076765 -0.064356446
000180 c9 8d 5e 3d 70 8b 37 bd 01 48 8a bd dd 72 29 bd
       0.054334436 -0.044810712 -0.06752015 -0.041369308
000190 38 a8 2a 3d 37 56 4d 3d 48 73 09 3c 1f 44 9e 3d
       0.041664332 0.05013105 0.008389302 0.07727837
0001a0 c0 a9 9a bd 0f f6 84 3d 00 0b 29 3d 68 fc 7a bd
       -0.075519085 0.064922445 0.041270256 -0.06127587
0001b0 d0 bd 87 bc 20 25 b6 3c 33 2c 0b bd 6b 4d 42 3c
       -0.016570002 0.0222345 -0.0339777 0.011859278
0001c0 f6 dc 20 3d d2 52 35 3d 8e df 32 bd dc 9f b9 bd
       0.039273225 0.044268437 -0.04367023 -0.09063694
0001d0 69 6f fc bb aa 14 0f bd d5 86 32 3d 43 b3 f3 3c
       -0.007703711 -0.034931816 0.043585617 0.029748565
0001e0 8a 8d 33 3d aa 2c ad bd c2 4b 8a 3d b3 b0 8b bd
       0.043836154 -0.084557846 0.06752731 -0.06820812
0001f0 43 4d 9b bd af 5c 1e bd f2 43 36 3d 9f 89 25 3d
       -0.07583096 -0.03866261 0.04449839 0.04041445
000200 7f c1 ac bc c7 44 e1 bc bb a2 e7 bd 4f fd 02 3d
       -0.02108836 -0.027498616 -0.11310335 0.031979855
000210 0a 2f c9 bd 90 a8 81 bd 27 39 d5 bd 9b 37 0b bd
       -0.09823425 -0.06330979 -0.104112916 -0.033988576
000220 c7 13 92 bd 18 d8 59 bc 31 b7 27 3d 48 a7 81 bd
       -0.071326785 -0.01329615 0.04094619 -0.063307345
000230 2b b9 9e bc da 1c 2b bd 10 fb ae 3b 95 db e7 3a
       -0.019375404 -0.041775562 0.0053399876 0.0017689342
000240 b3 ff 8c 3c 1b 61 3d bd 1e 16 ad 3b 77 16 d9 bd
       0.01721177 -0.046235185 0.0052821776 -0.10599988
000250 db eb 29 3d 36 61 b6 bd ab bd b0 bd 32 72 f5 bc
       0.041484695 -0.0890526 -0.08629926 -0.02996168
000260 74 00 8d bd 49 0b 95 bc 45 11 4a 3d 31 4a 62 bd
       -0.06884852 -0.018193858 0.049332876 -0.055246536
000270 1d 21 be bc 16 93 50 3b 53 53 70 bc c0 ae 2e bc
       -0.023209149 0.0031825951 -0.014668304 -0.010661781
000280 fb d4 9c bd 93 e3 c4 bd 9c 27 89 bc e6 e9 58 3d
       -0.0765781 -0.09613719 -0.01674252 0.052957438
000290 40 04 e5 bb 98 7e 20 bc 6b e8 83 bd a1 3c 9e 3d
       -0.006989032 -0.009795807 -0.064408146 0.07726408
0002a0 76 48 01 3d 7a d7 a2 bd a0 08 40 bb f1 b9 15 3d
       0.031563245 -0.07951255 -0.0029302016 0.03655428
0002b0 32 9e b5 bd 63 74 2e 3d 88 a9 0d bd 7d 04 45 bd
       -0.08868064 0.042591464 -0.034585506 -0.048099983
0002c0 df ef 88 bd ea d3 bd bb 9b 64 85 bd b4 d5 e1 bc
       -0.06686377 -0.0057930844 -0.065133296 -0.027567722
0002d0 33 00 46 3c dc d1 b0 bd 83 6a 56 3c 08 a2 3c bc
       0.012085008 -0.086337775 0.013086918 -0.011513241
0002e0 22 b9 24 3c b8 e5 d6 bd 6a cc 5a 3d 34 f7 20 3d
       0.010053905 -0.10493034 0.0534176 0.03929825
0002f0 62 d4 bf bd d6 7f 1e bd 00 b8 f8 3c 12 93 c9 bd
       -0.09366681 -0.038696133 0.030361176 -0.098425046
000300 40 33 ac bd 51 39 b7 3b 6e 2f 79 3c 04 0f 2d 3d
       -0.08408213 0.0055915494 0.015209062 0.04225065
000310 72 eb 12 bd ec ac b0 bd dd 24 6b 3d 17 63 da bd
       -0.03586907 -0.08626732 0.057408202 -0.10663431
000320 02 71 d2 bd bb 41 2b bb bc a9 b2 bd 67 06 7b bc
       -0.10275461 -0.0026131708 -0.087237805 -0.015321351
000330 13 6b 19 bd 13 45 f1 3c 52 ce 07 3d 89 6d 1e ba
       -0.03745563 0.029451882 0.033155747 -0.00060435437
000340 de b7 23 3d a9 e4 dc bd 84 d4 73 3c b4 df 38 bc
       0.03997027 -0.10785801 0.014882211 -0.011283804
000350 54 ad ad bc 1f 5e 86 bd b0 0a 92 3d c8 89 54 3c
       -0.021200813 -0.06560921 0.07130945 0.012972303
000360 ed 16 63 bd 81 28 9f bd 21 39 53 bd 43 56 46 bd
       -0.055441786 -0.077713974 -0.051568154 -0.04842211
000370 02 3b c0 bd f5 92 05 3d 97 08 8d bd 14 c0 f3 bb
       -0.09386255 0.032610852 -0.06886404 -0.007438669
000380 2a ab cc bd 7b cb 83 3d a0 d0 93 bc 00 da 0a 3a
       -0.099935845 0.06435295 -0.018043816 0.0005296767
000390 8e 81 18 bd d2 06 24 3d c3 20 01 bd ef 59 92 3d
       -0.037232928 0.040045567 -0.031525385 0.0714606
0003a0 96 e5 03 3d cb 84 80 bd 96 2a 4e 3d bd 5b 66 bd
       0.032201372 -0.06275328 0.050333582 -0.056239832
0003b0 78 67 8e bc 7d d9 9b bd 31 74 68 3d 47 2e 00 3d
       -0.017383322 -0.07609842 0.056751434 0.031294134
0003c0 3a 55 1e bb c4 6c e0 3c 48 48 17 bd d3 24 61 3d
       -0.0024159686 0.027395613 -0.036934167 0.05496676
0003d0 ae 05 1d 3d bc 95 92 bd d5 f0 2a bd 7f bd b0 3c
       0.038335495 -0.07157466 -0.04173358 0.021574734
0003e0 2c d0 e5 3a b3 07 2e 3d 85 3b a6 bc 48 6e e1 3c
       0.0017533354 0.04248781 -0.020292053 0.027518407
0003f0 4b 7e ce ba 02 97 38 3d 55 f7 8a bb 47 7f 90 bd
       -0.0015754191 0.045065887 -0.00424091 -0.07055526

conv2.bias f4 [32]
000000 98 79 37 bd 5a 43 c7 bd b1 20 32 3c 41 2b 12 3d
       -0.044793695 -0.09729643 0.010872052 0.03568578
000010 e7 b1 a1 3c ff 17 0a be ad c8 f0 bc 5f 44 83 bc
       0.01973815 -0.13485716 -0.029392565 -0.016023813
000020 c7 4e 8f 3d 92 08 f4 bd 67 be 70 3d 75 45 87 3d
       0.069974475 -0.11915697 0.05877533 0.06605045
000030 b1 80 b5 3d 19 3d b1 3d 46 f0 9a bd 09 54 f2 bd
       0.088624366 0.086542316 -0.0756536 -0.11832435
000040 f1 f4 a9 bb b1 26 5e bd 74 01 da 3c 62 0f df 3b
       -0.00518667 -0.054236118 0.026612021 0.0068072537
000050 01 1f e5 3d 83 e5 62 bd f9 cb 15 bd 0b 1e 72 bb
       0.11187554 -0.05539466 -0.036571477 -0.0036944177
000060 00 e7 c5 3c 55 ab 4d 3d 29 d2 9a 3a 6b 0c ca bd
       0.024158001 0.050212223 0.00118119 -0.0986565
000070 b9 6c 30 bc 3c e1 15 be 84 e6 fb bc 7f 96 a3 be
       -0.010768109 -0.14636701 -0.030749567 -0.31950757

fc1.weight f4 [256, 512]
000000 79 27 c0 bc 6c 72 08 bd 2a f8 72 bc d8 b7 92 bb
       -0.023456322 -0.033312246 -0.014829675 -0.0044774823
000010 e3 58 0c 3d d6 0a c6 3c f2 9a dd 3c f1 49 8c bc
       0.034264456 0.024175089 0.027051423 -0.017125102
000020 ca ab be bc 95 ec 22 3d 55 b1 02 3c c8 48 e1 3b
       -0.023275275 0.039776403 0.00797685 0.0068751313
000030 1d 68 20 3d 64 6e 31 bc 9e 9c 2f bd 80 19 c7 bb
       0.03916179 -0.010829542 -0.04287397 -0.006076038
000040 94 e7 86 3c f0 19 ac 3b ef e5 01 bd 40 a6 08 bd
       0.016467847 0.0052521154 -0.031713422 -0.033361673
000050 8c f2 26 3c 69 c9 a2 bc 9d 68 31 3d ec 0f 45 3d
       0.010189664 -0.01987143 0.043312658 0.048110887
000060 a8 c4 ac 3b 48 6a 80 3b e8 9b c7 3b 96 4b 9c 3c
       0.0052724667 0.0039189197 0.0060915835 0.019079011
000070 3b e1 24 3d 00 00 4b 36 28 20 b7 3b d3 07 03 3d
       0.04025386 3.0249357e-06 0.00558855 0.031989884
000080 0c f6 53 3d f0 f8 c2 b9 c4 f7 3e 3d 22 9d 94 bb
       0.05174832 -0.00037188036 0.046623006 -0.0045353333
000090 84 d1 3c 3c cc 90 d0 3c 44 68 76 3d 98 58 93 3c
       0.011524562 0.02545967 0.06015803 0.01798658
0000a0 52 b1 01 bd a0 ad a5 3a e0 a5 8c bc e7 d9 02 3d
       -0.031663246 0.0012640245 -0.01716894 0.03194609
0000b0 77 36 cc 3a 54 bc 76 3c 8d 67 de bc e9 22 18 3d
       0.0015580197 0.015059549 -0.027148986 0.037142668
0000c0 7a bf 9e bd 66 87 23 3d cd 2c 11 be b8 c0 fb bd
       -0.07751365 0.039924048 -0.14177246 -0.122926176
0000d0 9c 2e 86 3d d2 c2 91 bc 52 45 58 bd 32 ae ae bd
       0.06551859 -0.017793093 -0.052800484 -0.08529319
0000e0 a7 b0 a9 bd ed 09 d7 3d 10 d4 22 3e 5c 15 f5 3d
       -0.08285647 0.1049994 0.15901208 0.119669646
0000f0 74 90 02 be 84 45 3b be 67 79 24 bc 0c f7 54 be
       -0.12750417 -0.18288237 -0.01003871 -0.20797366
000100 df 31 0e 3d 92 04 40 3c c6 19 28 3d 78 f5 19 3d
       0.03471553 0.01171984 0.041040204 0.037587613
000110 7e 06 af 3b a8 0b 4d bd d5 18 b8 bb 7f 53 81 3c
       0.00534135 -0.050059944 -0.0056181946 0.015786884
000120 0e 00 d4 3b 84 39 3f bd 73 bc 56 bb 19 52 fe 3c
       0.006469733 -0.04668571 -0.0032766133 0.031045007
000130 d8 8f 50 3c 18 e6 54 bc ca 2a 24 3d ef f0 0d bd
       0.0127296075 -0.012994312 0.04007987 -0.0346536
000140 59 84 bb 3d 48 5d 82 3d cf f6 9b bc 88 cc 63 3d
       0.09156103 0.06365448 -0.019038586 0.055614978
000150 d6 47 7f 3c 6b 89 a2 3d fd 8b 8a bb 4e 33 1c 3d
       0.015581092 0.07936367 -0.0042281137 0.038134865
000160 ee a7 2b 3d 7a 96 a4 3c d9 fb a2 3c a3 b1 3f 3d
       0.041908197 0.020091284 0.019895481 0.046800267
000170 17 f9 68 3d fc ac 2e 3d 4a fe 85 3d 06 83 a7 3d
       0.056878176 0.04264544 0.065426424 0.081792876
000180 22 03 39 be f0 cf 18 be f3 8d e6 bd a6 dc 17 bd
       -0.18067601 -0.14923072 -0.112575434 -0.03707566
000190 aa 65 a9 bd 77 0e 86 bd 4d f4 fe bc 83 09 47 bd
       -0.08271344 -0.06545728 -0.031122351 -0.048593055
0001a0 0f 93 6d 3c 6b 40 0e 3e b0 de 03 3e 78 fb 6e bd
       0.0145003935 0.13891761 0.12877917 -0.058345288
0001b0 bf 4f c1 3d 8e ae c2 3d 76 60 69 3e f7 d7 0c 3d
       0.094390385 0.0950595 0.22790703 0.034385648
0001c0 eb a8 aa bb 07 de 86 3c c2 e4 3e 3d 5c c9 a8 3c
       -0.005208125 0.016463293 0.04660488 0.020603828
0001d0 9d 25 44 bb bc 3e a9 bb f2 5f 19 3d 64 12 78 3d
       -0.0029929646 -0.005164949 0.037445016 0.060564414
0001e0 f3 c8 16 bd 6d 79 20 bd 88 84 37 bc 3a df 1a 3d
       -0.036812734 -0.0391783 -0.0112010315 0.03781054
0001f0 fb 0e ea bb ec 20 56 bc 78 b9 48 3d be 9b 6b 3d
       -0.007142899 -0.013069373 0.049005 0.057521574
000200 2c e6 d3 3d 03 e5 15 be 70 52 0b be 78 c9 32 3d
       0.10346636 -0.14638142 -0.13605666 0.043649167
000210 7a 25 bb 3d 38 27 c6 3d 0d 55 ee 3d fd cc 78 3d
       0.091380075 0.09675449 0.11637316 0.060742367
000220 98 ae 55 bc d4 6f ee bd ff e7 da bd e1 34 bd 3c
       -0.013042115 -0.11642423 -0.10688781 0.023096504
000230 75 e3 02 3e 85 89 06 bf 08 37 16 bf ce da 07 be
       0.1278208 -0.5255359 -0.5867772 -0.13267061
000240 f8 60 bc bd bc 22 c3 bd 77 3c 00 be d5 90 11 be
       -0.09198183 -0.095281094 -0.12523066 -0.14215405
000250 fa 81 be bd 5d 07 c2 bd 71 aa 02 be eb ec 3d be
       -0.09302135 -0.09474061 -0.1276033 -0.18547408
000260 07 6d 2a 3e d9 0c 11 3e 98 17 a2 3d 67 c0 59 be
       0.16643153 0.14165057 0.079146564 -0.21264802
000270 e5 39 95 bd da 5f 8d 3e 82 31 47 3e 48 b3 b7 3d
       -0.07286433 0.2761219 0.1945248 0.08969742
000280 75 33 32 3e 8a e3 89 3d e9 b2 91 3d 7f 81 0a 3e
       0.17402442 0.06732853 0.071142025 0.13525961
000290 9d 53 71 3d e3 1e ad bd 37 a1 c3 bc e4 d2 4d bb
       0.05891763 -0.08453157 -0.023880584 -0.0031406218
0002a0 8b d3 f3 ba da 65 d1 bd 29 0d 1a be b6 4e 56 be
       -0.0018602473 -0.10224505 -0.15044083 -0.20928463
0002b0 4c 3f 97 3b 61 5d ef 3b 9f b4 c8 3c 52 eb 83 bd
       0.0046157 0.007304833 0.02450019 -0.06441368
0002c0 8e fe 3b 3e 79 f3 28 bc b2 0e 29 3d 2e dc e2 3e
       0.18358824 -0.010311955 0.04127378 0.4430861
0002d0 77 7e 6e 3e d6 8f 1a 3d 30 d4 d4 bd c9 b6 86 3e
       0.2329043 0.03773483 -0.10392034 0.2631133
0002e0 92 fb 8c 3c 66 9d c0 bb e4 6a 19 3e 5a cf 61 bc
       0.017209802 -0.0058781384 0.14982182 -0.013782347
0002f0 66 f2 81 bd a7 4e c2 3d cd 8e 21 3d e5 1b a4 bb
       -0.06345062 0.09487658 0.039442826 -0.005008208
000300 b6 b9 31 3d d7 04 14 be ac 56 ff bd 70 44 7b 3c
       0.04339 -0.14454971 -0.12467703 0.015336141
000310 0f 68 90 3d 75 33 a7 3d a5 ee e4 bd 71 6e 74 3e
       0.070510976 0.081641115 -0.1117833 0.23870255
000320 cc 1e 0d 3e 10 4f f5 bc 02 a0 97 bd a6 36 a3 3d
       0.1378128 -0.029944927 -0.07403566 0.07969408
000330 13 85 33 3c ea 30 07 bd 80 2a 3f 3d c9 31 11 3e
       0.01095702 -0.033005632 0.04667139 0.14179148
000340 cd 1d 51 3d ef e0 03 bd 06 0a cc bc 57 d9 87 3e
       0.05105381 -0.032196935 -0.024907123 0.26533005
000350 ca 94 d7 bb 79 8b 6a bd cd 33 b9 be cd e1 f9 3d
       -0.0065790163 -0.057261918 -0.36172333 0.12201271
000360 fd 33 21 bc 62 2b 0c 3e ba 11 6c 3e 72 ab 01 be
       -0.009839055 0.13688424 0.23053637 -0.12663057
000370 0d f2 f4 bd 4e 6b 2d be 06 38 48 3e 5e 40 53 be
       -0.1196023 -0.16935465 0.19552621 -0.20630023
000380 c4 f6 ab bc 58 4a e5 3b 82 2c b7 3c 72 b7 df 3c
       -0.02099169 0.006997388 0.02236009 0.027309153
000390 60 95 63 3c 49 01 2d bd c8 65 6b bc 50 9d 84 bb
       0.013890594 -0.042237554 -0.014367528 -0.0040470734
0003a0 29 43 26 bd 83 69 d5 bc d3 5a 28 3d 54 55 07 bd
       -0.040591393 -0.026051288 0.04110224 -0.03304036
0003b0 74 a5 ae bc 59 f4 24 3d e4 b4 91 3c 83 3b 1b bd
       -0.021319129 0.04027209 0.01778645 -0.03789855
0003c0 30 60 07 3d 04 ef 05 be 72 04 f9 bd 61 0f 4b 3e
       0.033050716 -0.13079458 -0.12159051 0.19830085
0003d0 6b 0b 91 be 5b 9e 67 be 05 f4 dc bd 4f dc 64 be
       -0.28329024 -0.22619002 -0.107887305 -0.22349666
0003e0 c5 33 f8 bd c6 2e 21 be a0 27 24 3d b3 f8 ee bd
       -0.12119249 -0.15740499 0.04007685 -0.11668529
0003f0 e9 70 17 3e 42 37 19 3e e7 eb 07 be dc 4c 8b be
       0.14789166 0.14962485 -0.13273583 -0.27207077

fc1.bias f4 [256]
000000 90 4e cf bd 37 5d 24 3c 8b 00 a6 bc ad 6a c7 bc
       -0.101224065 0.01003199 -0.02026393 -0.02434286
000010 37 f5 17 bd c0 6e eb bd d4 45 40 3e 78 86 f9 bd
       -0.03709909 -0.11495733 0.18776637 -0.12183851
000020 2a 8d 64 3e f3 7e 17 bd e1 31 07 bd 89 72 83 bd
       0.22319475 -0.036986303 -0.033006553 -0.0641833
000030 be 8d 63 bc 32 00 a3 bd cd 10 8b 3d 97 df c6 bb
       -0.013888774 -0.07959022 0.06790314 -0.0060691345
000040 fa 04 28 bd dc d9 94 bd 22 3b b5 bd a8 ca fd bc
       -0.04102037 -0.07268116 -0.08849169 -0.030980423
000050 06 e8 4f bd b8 94 15 bd 33 53 c8 bd 8b ee b3 3e
       -0.050758384 -0.036518782 -0.09781494 0.3514293
000060 87 37 06 be 3c f1 f4 bd 3e 4f 97 bd 42 37 c0 bd
       -0.1310712 -0.11960074 -0.07388161 -0.093855396
000070 ea b2 ae bd 81 28 2f 3d 41 a7 76 3d 07 26 69 3e
       -0.08530219 0.042763237 0.0602181 0.22768413
000080 e2 42 73 3c 76 7b 00 3e 80 56 3f bc a4 3d 81 bd
       0.014847489 0.12547097 -0.011678338 -0.06310585
000090 a8 1e 20 3c 73 9e da bc c0 43 ca bc 32 6b 49 bd
       0.009772934 -0.026686883 -0.024690509 -0.049174495
0000a0 ae 44 29 be 4c 37 a4 3e 8b b3 29 3e f5 5e 5a 3d
       -0.16530105 0.32073438 0.16572396 0.053313214
0000b0 91 e2 e8 bd 2f b6 9d bb c6 08 c4 bc 24 fb bb 3b
       -0.11371339 -0.0048129777 -0.023929965 0.0057367254
0000c0 54 1d 0a 3c 80 06 0b 3d 9a 94 82 3e 8e 36 a6 bd
       0.008429844 0.033941746 0.25504 -0.08115874
0000d0 76 fb 06 bd a3 37 d1 bd 6e a4 77 3c e5 f8 bc 3c
       -0.032954656 -0.1021569 0.015114887 0.0230679
0000e0 c0 6b 4e 3e 73 8f f4 bc 4e 98 7a bd 32 a6 aa bd
       0.20158291 -0.029853558 -0.061180405 -0.083324805
0000f0 a0 08 66 bd 0f 60 ef 39 10 23 07 3e c2 3c 96 bc
       -0.05616057 0.00045657202 0.13196969 -0.018339518
000100 30 fa 6e bd 89 59 20 bd c7 e8 30 bc 38 1e 75 bc
       -0.058344066 -0.039147887 -0.010797686 -0.014960818
000110 36 58 25 be df 9a 55 3e 77 aa 9a bc 6c 87 cd be
       -0.16146931 0.2085986 -0.018880112 -0.4014238
000120 ba bb 61 3e 7d ac 53 be cc 34 65 3d fc 72 f2 bc
       0.22044268 -0.20671268 0.055958554 -0.029595844
000130 8c 20 d4 3e 53 6f 08 bd 23 5e 33 bd a6 38 d0 bd
       0.4143108 -0.033309292 -0.043790948 -0.10167055
000140 cf dc da 3d b7 50 96 3d c9 40 86 3d 84 e5 25 3d
       0.10686647 0.07339614 0.065553255 0.040502086
000150 9f c5 7d bd 18 61 2f bc fb c1 95 bc e7 ea 57 bd
       -0.061956044 -0.010704301 -0.018280974 -0.052714255
000160 96 ab d3 3d 8b bc c6 3d 7f 51 b9 bd b8 21 ad bd
       0.10335462 0.097039305 -0.09048747 -0.08453697
000170 97 de 39 be f4 7b 6d 3e 58 16 d3 bd 17 be 8b bc
       -0.18151318 0.23191816 -0.10306996 -0.017058415
000180 a5 fe 50 bd 80 0d dc bd 0f 71 1d bd 28 60 ce bc
       -0.051024098 -0.107447624 -0.0384379 -0.025192335
000190 d4 0e 97 bd 52 71 4a be 9a bf 85 3e 3a 0a 96 3e
       -0.07375875 -0.19769791 0.26122743 0.29304677
0001a0 7e b0 f5 bc f5 ac 8a bc 58 f4 f5 3d 75 62 d1 bd
       -0.029991385 -0.016928175 0.120094955 -0.10223857
0001b0 d6 ce 41 3d f2 35 80 bc ca 0a c2 bc cf 67 00 be
       0.047316395 -0.015650723 -0.023686785 -0.125396
0001c0 49 ac ef bc 81 e6 bb bc 42 52 9d bd 74 55 06 3e
       -0.029256957 -0.022937061 -0.07681705 0.13118535
0001d0 32 68 8b 3e 93 4a da bd ec 11 8f 3e 48 60 85 bd
       0.27227932 -0.10658755 0.2794336 -0.06512505
0001e0 d3 fe 76 bc b4 1a ce bd b9 db 5b 3d 5a 9f 9e 3e
       -0.015075403 -0.10063687 0.05367634 0.3098095
0001f0 f4 dd 92 bc 9d 85 d0 3d 83 8c bf 3b aa 59 51 bd
       -0.017928101 0.10181735 0.0058456077 -0.0511109
000200 08 71 d7 bc c0 75 8a bd 44 f6 a2 bd e2 43 59 bd
       -0.026299015 -0.0676074 -0.07957128 -0.053043254
000210 03 12 61 be 0a d9 80 bc c2 0a 10 be 08 0b 12 3c
       -0.21979527 -0.015728492 -0.14066604 0.008913763
000220 6b fe 04 bd 03 c0 2c bd 83 c8 07 bc 1c 92 16 3e
       -0.032469194 -0.042175304 -0.008287552 0.14704174
000230 45 0e a6 bc fb 4a 8e be de de 69 3e 6d 0c 99 bc
       -0.020270476 -0.2779158 0.22838923 -0.018682683
000240 64 57 91 be 8b 43 fc 3d 1c 1e 92 bd fe b4 3e be
       -0.28386986 0.1231757 -0.07134649 -0.1862373
000250 63 ac 84 bc 4e c4 b3 3d b5 36 33 3e 19 6d 2e bd
       -0.016195482 0.087776765 0.17501338 -0.042584512
000260 39 0f fd bc b2 a4 82 3e a4 4a c1 bd f0 9d 7a bd
       -0.030891048 0.25516278 -0.09438065 -0.061185777
000270 55 05 ac 3d b5 7b 85 bd e0 f6 ac 3d 88 31 c2 bc
       0.083994545 -0.06517736 0.08445525 -0.023705259
000280 b0 1a c6 3c 63 f9 e6 bd af 42 cf bc 1a ec 1b bd
       0.024182647 -0.112780355 -0.025300352 -0.03806696
000290 66 fc ab 3e 02 dd 95 3d 20 0a 82 3e a0 c0 95 3d
       0.33591002 0.073175445 0.2539835 0.07312131
0002a0 cd 6d 57 bd f6 ce cf 3d 67 9d 55 3d f0 0f 49 3a
       -0.05259495 0.101468965 0.052152064 0.00076699164
0002b0 b2 ed 13 be 7c b8 63 bd 61 b9 36 bd b9 37 33 3e
       -0.14446142 -0.05559586 -0.044610385 0.17501725
0002c0 9f 30 1a 3e a9 68 2d bd b0 7e 52 3d da 75 37 bc
       0.1505761 -0.04233614 0.05139035 -0.011197532
0002d0 62 61 23 3e 0d ea 8c 3e 1b e4 5a be b0 42 fe bd
       0.15955117 0.27522317 -0.21376078 -0.124150634
0002e0 2d ba 4b 3b ac 10 1b be f1 87 29 bd 2a 97 25 bc
       0.0031086311 -0.15143079 -0.04138941 -0.010106841
0002f0 76 8f e7 bc f0 6f 72 bd 7f ca 25 3d eb fe 87 bd
       -0.02826665 -0.059188783 0.04047632 -0.066404186
000300 14 4d 2a bd 75 25 af bd 82 e6 80 3e da 56 3a bc
       -0.041577414 -0.08552066 0.25175864 -0.011373246
000310 c6 bd 04 3e 4f bb ba bc b4 55 6e bc 40 6f 21 bd
       0.12963018 -0.022794394 -0.0145468 -0.039412737
000320 bb 59 2f bd df b5 58 bd 38 61 23 bd 22 d7 43 bd
       -0.042810183 -0.05290782 -0.039887637 -0.04781259
000330 00 ba 7a bc 55 43 f9 3d 6e bc 32 be 44 61 a2 3e
       -0.015303135 0.12171046 -0.17454693 0.31714833
000340 25 16 5a bd 8c 4c fa 3d 08 21 5d 3e 3c 20 a9 bc
       -0.053243775 0.122216314 0.21594632 -0.020645253
000350 7e b5 34 bd f2 33 e0 bb e5 6d c4 bc d3 b1 21 bc
       -0.044118397 -0.00684213 -0.023978183 -0.009869057
000360 bf 48 37 bd 24 2c 35 bd 1a f9 1b 3e 8d 92 29 3c
       -0.04474711 -0.04423155 0.15231743 0.010349882
000370 df 8c 90 3d 80 fb b5 be a1 cd 55 bd 3e 0a d6 3c
       0.07058119 -0.35543442 -0.052198056 0.02612793
000380 2d 0e 49 3e 23 83 78 bd a5 bd 19 3e 68 99 73 bd
       0.19634314 -0.060671937 0.1501375 -0.05947247
000390 b9 3c e4 bd a4 5c e9 3b d7 a2 7d bd 8c c6 9d bd
       -0.111443944 0.0071216393 -0.061922874 -0.077038854
0003a0 9a 74 1a bc 03 5f 2a bd f2 bb d0 bd 08 0d 13 bd
       -0.009427214 -0.041594516 -0.10192098 -0.0359011
0003b0 ad c6 44 bd a1 85 82 3e 36 22 50 bd 8e ba 19 3d
       -0.048041034 0.25492576 -0.050813876 0.037531428
0003c0 00 c3 92 b9 d2 a7 3d 3e 9d 9e 46 3d 5d 47 1d bd
       -0.00027992576 0.1852105 0.04849111 -0.038398135
0003d0 e9 99 48 be 8d 84 3a 3a 8a ef 9a bb 84 96 89 3d
       -0.19589962 0.00071150885 -0.0047282623 0.06718162
0003e0 00 03 d6 3d 4d 2a d0 bc 54 34 c0 bd 72 c8 1b bd
       0.10449791 -0.025410796 -0.09384981 -0.038032956
0003f0 c5 a5 7c bc 55 0a 23 bd 6d 7d c3 3c 67 37 cc bd
       -0.015420382 -0.039804775 0.023863519 -0.09971505

fc2.weight f4 [2, 256]
000000 49 df 27 bd 73 1e 1d bd f5 8f 2e 3d 1b 2e 28 bc
       -0.040984426 -0.038359117 0.042617757 -0.010264899
000010 92 89 6a 3d 0b 6f d3 be 98 06 81 3b fc 02 1a be
       0.057260104 -0.41295657 0.0039375536 -0.15040201
000020 d9 89 db 3e 8b ef 91 bc 11 a2 04 3d 8d 17 62 3c
       0.42878607 -0.017814418 0.03238112 0.01379956
000030 3e d3 1a be f6 d2 8f be ce c2 ab 3c 86 e6 fa bc
       -0.15119645 -0.28090638 0.020966914 -0.0306275
000040 ad 46 d6 be 6b 62 02 3c 5e 9f 8a 3b b1 dc 44 bd
       -0.41850796 0.007958035 0.004230424 -0.04806203
000050 15 05 46 3d 20 23 46 bd 81 20 fd 3c d5 8e dc 3e
       0.04834469 -0.04837334 0.030899288 0.43077722
000060 e7 b2 0e be f6 2e 17 bd 5a 6e 5a bd 15 49 7b bc
       -0.13935433 -0.03691002 -0.053327896 -0.015337248
000070 f4 5c bd be bc 95 fe be ab a0 d3 be 81 95 50 3b
       -0.3698498 -0.49723613 -0.41333517 0.0031827393
000080 06 12 c1 3c 69 4a 6e bf 62 b2 bc be 52 16 1f 3d
       0.023568165 -0.9308229 -0.36854845 0.038839646
000090 b5 ff 0a bf 86 53 c2 bd 81 6f 38 bf d8 b7 5d bc
       -0.5429643 -0.09488587 -0.7204514 -0.013532601
0000a0 c9 9c c1 bd 9e ed 6f 3d 27 a2 f1 3e 75 2c 52 bf
       -0.094537325 0.05857622 0.47194025 -0.82099086
0000b0 b4 ab ba be 07 b3 16 be 53 29 26 bb fe 95 1c 3d
       -0.36459124 -0.14716731 -0.002535422 0.03822898
0000c0 21 00 44 3d d0 e7 02 bf 4d e5 ac 3d 85 31 ad bb
       0.047851685 -0.5113497 0.08442173 -0.005285444
0000d0 bf a8 ad 3a d5 76 51 bf 7e 17 b4 be 22 cc 34 bf
       0.0013249143 -0.8182195 -0.35174173 -0.7062398
0000e0 5a 9b c8 3e e1 1d 0b 3d 3b a7 2a 3d e2 9a ae be
       0.39181024 0.03396404 0.04166339 -0.3410254
0000f0 b7 0e c5 3c bd 12 eb bc d6 a4 f0 3e 35 d9 6c be
       0.024054868 -0.028695459 0.4700076 -0.23129733
000100 c4 1a da bd 32 d8 a1 bc 5c 4d ad 3b cb 31 67 bd
       -0.106496364 -0.01975641 0.005288763 -0.05644397
000110 f9 2e 44 be d3 92 dd 3e 65 90 c8 be de c5 68 bf
       -0.19158544 0.4327608 -0.39172664 -0.9092692
000120 0c 00 dc 3e f4 df c3 be 62 42 a4 bf a1 d9 02 bf
       0.42968786 -0.382568 -1.2832758 -0.51113325
000130 cf 07 e9 3e ec f5 87 bb 19 09 0e bd d1 af 40 be
       0.4551377 -0.004149189 -0.034676645 -0.18817069
000140 74 b6 8d bb 4c ab 42 3c 23 d5 53 bf b0 8f e6 be
       -0.0043247286 0.011881661 -0.82747096 -0.450315
000150 ea ea ff bb 48 40 02 bd 9e 18 55 3d a6 11 84 3b
       -0.0078099864 -0.031799585 0.05202543 0.004030424
000160 c3 9e ee 3e a8 92 82 be cd d1 24 bc 75 76 b6 ba
       0.466055 -0.25502515 -0.010059786 -0.0013920801
000170 0d bc 3c 3c 60 58 80 3d 33 4d c8 be 13 7f 8e bc
       0.011519444 0.06266856 -0.39121398 -0.017394578
000180 67 fd d1 3c b6 15 5f be 78 4c ca be 99 84 c7 be
       0.025633527 -0.21785626 -0.39511466 -0.3896835
000190 30 4a b5 be cd c5 f2 bd 4d 46 d2 3e 41 18 b6 3e
       -0.35408163 -0.11854134 0.4106926 0.3556538
0001a0 a4 e1 39 3b 52 81 ae 3b 91 86 9f bb 4c f6 65 3b
       0.0028363252 0.005325475 -0.0048683365 0.0035089431
0001b0 dd 88 55 be e5 21 b5 3c c4 10 00 bc 9b 7c 1f bf
       -0.2085299 0.022110889 -0.007816497 -0.6229951
0001c0 03 95 0a 3d 10 88 ff bc 3f 81 7b bc 2e 22 2b 3b
       0.033833515 -0.03119281 -0.015350639 0.0026112902
0001d0 01 4f 6d 3e a8 fd 49 be c9 5a ae 3e fe 90 76 3d
       0.23174669 -0.19725668 0.3405364 0.06019687
0001e0 ce 5a c9 bc 80 63 7e bd 84 71 73 be e2 05 0c 3f
       -0.024579432 -0.06210661 -0.23773772 0.54696476
0001f0 a4 09 48 bd 26 28 aa 3e 57 08 9c bc 2e 99 37 bf
       -0.04883732 0.33233756 -0.019046945 -0.7171811
000200 fe 4e 97 be cb a2 bc bd 2a 08 e9 3d a4 e2 00 bc
       -0.29552454 -0.09210738 0.1137851 -0.007866535
000210 4b 98 f9 be 4b d3 2f bd 85 ef ca bc 10 9d fc be
       -0.48749003 -0.042926114 -0.024772415 -0.4933858
000220 ac 6c a4 3a d4 ae 86 be 88 a0 c2 bb 58 5b 42 3e
       0.0012544594 -0.26305258 -0.005939547 0.18980157
000230 8f ff dd 3c 7c 5b 62 be 5a 65 ee 3e 29 e6 0c 3d
       0.027099399 -0.22105211 0.465617 0.034399185
000240 50 73 6e be 0f 2b c2 3c aa 68 ae bc e8 8f 29 bf
       -0.23286176 0.023702173 -0.021290142 -0.6623521
000250 f1 cf 38 bd 45 52 f4 3c bc 44 43 3e 1a 0d 35 bc
       -0.045120183 0.029824385 0.19069189 -0.011050487
000260 09 b9 be 3c f6 5c 28 3f 21 c3 46 be ad 6a 5e 3d
       0.023281591 0.6576685 -0.19410373 0.054300953
000270 4b 3f 5f bf e5 29 9d 3e 35 83 5f bd bc e2 e0 bc
       -0.8720595 0.30696025 -0.05456849 -0.027451865
000280 05 bf cc be 2f 71 95 bd d1 4c 21 bd 15 c2 a3 3c
       -0.39989486 -0.07296979 -0.0393799 0.019990006
000290 c5 90 f6 3e 38 a3 23 bf 56 20 35 3d 23 c7 09 bf
       0.48157325 -0.6392093 0.04422029 -0.53819484
0002a0 42 a0 29 bd e3 58 cd 3b 95 3e 0e 3e c8 79 2c bd
       -0.0414126 0.0062666996 0.1389106 -0.042108327
0002b0 a5 55 45 be 16 c4 b6 be ff a5 ca bb 0b 2a 7f 3e
       -0.19270952 -0.35696477 -0.006184339 0.24918382
0002c0 d1 2a 32 3f 7a 76 11 bd 89 17 e5 be 71 67 73 bf
       0.6959658 -0.03551338 -0.44744518 -0.95079714
0002d0 5b 22 22 3f 8b b1 c6 3d f1 6e 56 bf 47 61 d4 bd
       0.6333367 0.097018324 -0.83763033 -0.10370117
0002e0 36 83 90 be 30 b7 90 be d8 24 54 bd ad ef 93 bd
       -0.28225106 -0.2826476 -0.05179295 -0.07223449
0002f0 ad 1c 31 be 90 19 bd 3c e4 72 34 3f 54 8c 1e be
       -0.17296095 0.023083478 0.7048781 -0.15483218
000300 2f 79 d5 be d2 6c 7c be 53 61 58 3e 3b db b7 bc
       -0.41694018 -0.24650887 0.21130876 -0.022443404
000310 0e 5a 43 bc a7 13 fa be ef 01 64 3c 00 c3 e0 3c
       -0.011923326 -0.4884312 0.013916477 0.027436733
000320 7e fd 7f be 05 47 08 bf a7 bc 07 bf 67 b2 7b bf
       -0.24999043 -0.5323337 -0.53022236 -0.98319095
000330 43 22 0b bf ff 11 18 be 8a ee e9 be ea c6 3f 3f
       -0.54349154 -0.14850615 -0.45689803 0.74912894
000340 d2 4a 17 bf f3 b6 77 3f c7 ba 58 3e a6 f5 c0 bc
       -0.5909854 0.96763533 0.21165 -0.023554634
000350 bd 5c 32 be 81 ae e0 bc af 59 40 bb 4f c7 28 3c
       -0.1741819 -0.02742696 -0.002935033 0.010301425
000360 cc 32 dc bd 76 e4 0f bf c6 92 c0 3d f2 a5 18 bf
       -0.10751876 -0.5620798 0.09402995 -0.5962821
000370 0b a9 58 3e e7 1e 16 bf e3 a2 2b bd 30 d1 c7 be
       0.21158235 -0.58640903 -0.041903388 -0.39026785
000380 e8 fc 9d 3d be d9 95 be 52 3d ef 3c 91 3c 0d bf
       0.07714254 -0.29267687 0.029204044 -0.5517054
000390 92 75 06 bd d0 cf 54 bd d8 d9 e2 3c 26 b7 ae 3c
       -0.032826968 -0.051955998 0.027691767 0.021327566
0003a0 64 26 0b bd 75 0c 3f bc cd c9 4a bf 35 ef 91 be
       -0.03397216 -0.011660685 -0.79214174 -0.28502813
0003b0 36 95 18 3d 90 1b 13 3f ae d8 41 bc d0 1c 57 3f
       0.037251674 0.5746393 -0.011831446 0.8402834
0003c0 e7 50 03 bf 5f 66 45 3b 0d 11 26 bd 7c 75 36 bd
       -0.5129532 0.0030120832 -0.040543605 -0.044545636
0003d0 ea e7 07 bf bd 45 9d 3c 7f 21 2e bd 8e a6 8a 3e
       -0.5308825 0.019198293 -0.042512413 0.27080196
0003e0 72 66 dd bc 6d a4 95 3b 0c 01 b4 be ce ab 23 3d
       -0.027026389 0.00456672 -0.3515705 0.039958768
0003f0 61 fe 32 3c 0e 5c a1 3a 6c 7a 05 bf af c6 ba bb
       0.0109249065 0.001231076 -0.52139926 -0.0056999545

fc2.bias f4 [2]
000000 3b 4d a3 3e a9 f0 9a be
       0.3189486 -0.30261734
