Saved Models/modelNorm.pt (torch, 549551 bytes, 8 tensors)

conv1.weight f4 [16, 1, 3, 3]
0	0xbe5cb7ed	-0.21554537
1	0xbee4029c	-0.4453324
2	0x3e0d8fac	0.13824338
3	0x3ed04ac2	0.40682036
4	0xbec90a2f	-0.39265582
5	0xbf2745f6	-0.65341127
6	0x3ed374bb	0.41299996
7	0x3e9df65f	0.3085203
8	0xbee5ffd6	-0.4492175
9	0x3c1f3d42	0.009719195
10	0x3eb2cf00	0.34923553
11	0x3ed46125	0.41480365
12	0x3c43a0dc	0.011940207
13	0x3e631061	0.22174217
14	0x3e838c95	0.25693193
15	0xbecdff59	-0.40233877
16	0xbf08f01c	-0.5349138
17	0xbe9d13a4	-0.30679047
18	0x3ecfeeb9	0.40611818
19	0x3e15f976	0.14645943
20	0xbea9fa0a	-0.33198577
21	0xbedcb119	-0.43103865
22	0xbd8ad5c8	-0.06779057
23	0x3f10c896	0.5655607
24	0xbeb976d0	-0.3622346
25	0xbd6784ec	-0.05652325
26	0x3e35e267	0.17762147
27	0x3f117fb3	0.5683548
28	0xbe26373a	-0.16232005
29	0xbe6a60e5	-0.22888525
30	0xbf24a479	-0.64313465
31	0xbec7b427	-0.39004633
32	0xbf18d4bf	-0.59699625
33	0xbd9c2e30	-0.07625997
34	0x3ee23d0c	0.441872
35	0x3f0b7e28	0.54489374
36	0x3d8eca90	0.069722295
37	0xbe326391	-0.17420794
38	0x3e6d0a2c	0.23148412
39	0x3e1bb73c	0.15206617
40	0x3e2a26ce	0.16616365
41	0x3e1c2638	0.15248954
42	0xbf241b60	-0.6410427
43	0xbe69ea79	-0.2284335
44	0xbecb2407	-0.39675924
45	0x3e9a3d8b	0.3012508
46	0xbe4d1fdc	-0.20031685
47	0xbd5b62dc	-0.053561077
48	0x3eeec672	0.46635777
49	0xbe98f9f9	-0.29878214
50	0xbf0ac814	-0.54211545
51	0x3ece63db	0.4031056
52	0x3e7580e1	0.23974945
53	0xbe21e435	-0.1580971
54	0xbd86adfb	-0.06576153
55	0xbc580179	-0.013183945
56	0xbd43223e	-0.047640078
57	0x3e418bb6	0.18900952
58	0xbc8af725	-0.01696355
59	0x3e602c23	0.21891837
60	0x3cd7be11	0.026335748
61	0x3d5bd039	0.053665373
62	0xbe0502af	-0.12989305
63	0x3e8abdaf	0.27097842
64	0xbc0e78c0	-0.008695781
65	0xbebd64d0	-0.36990976
66	0x3ecacdc4	0.39610112
67	0xbbe28c81	-0.006913722
68	0xbec3dca3	-0.3825427
69	0x3f02a9b1	0.5104018
70	0xbeabe3f3	-0.3357235
71	0xbee2856b	-0.44242415
72	0x3ea8fd3f	0.3300571
73	0xbecb9c0b	-0.3976749
74	0xbf2c6ee0	-0.6735668
75	0x3ecefe04	0.40428174
76	0xbcedaea8	-0.029013947
77	0xbe9220f8	-0.28540778
78	0x3ea9308a	0.33044845
79	0x3e4f1490	0.20222688
80	0xbd83d127	-0.06436377
81	0xbf43d0ac	-0.76490283
82	0xbf0dc54a	-0.55379164
83	0xbe3a0402	-0.18165591
84	0x3e95d6b5	0.2926537
85	0x3e9a0a26	0.30085868
86	0xbe4606c4	-0.19338518
87	0x3dd48c92	0.10378374
88	0x3e85f729	0.2616513
89	0x3f0b58e2	0.544325
90	0xbef9fcc7	-0.48825666
91	0x3e2b19f3	0.16709118
92	0x3f0404b7	0.51569694
93	0xbe222b63	-0.15836863
94	0xbef5e488	-0.48025918
95	0x3d11dc22	0.035610326
96	0x3ef8fd9d	0.48630992
97	0xbf0ace3f	-0.54220957
98	0x3d85a5e5	0.065257825
99	0x3e9f92ea	0.31166774
100	0x3eac28b3	0.336248
101	0x3eabb452	0.3353601
102	0x3ea70a6d	0.32625142
103	0x3da6302d	0.081146576
104	0xbd8e14f9	-0.06937594
105	0x3e1a5daf	0.150748
106	0xbf02a981	-0.5103989
107	0xbed486d3	-0.41509113
108	0x3da58384	0.08081725
109	0xbe892c9e	-0.26791853
110	0xbdffeb06	-0.12495999
111	0x3dd8fc0c	0.10594949
112	0xbe1ae16e	-0.15125057
113	0x3dee516c	0.11636624
114	0xbea87bd3	-0.3290697
115	0x3e07c142	0.13257316
116	0x3dc3d0b0	0.09561288
117	0xbe86f7af	-0.26360843
118	0xbe9b7e07	-0.3036959
119	0xbea6e1d8	-0.3259418
120	0xbe2471e3	-0.1605907
121	0x3cbd7c90	0.023130685
122	0x3db3ead0	0.08785021
123	0xbd275938	-0.04085657
124	0xbe955197	-0.2916381
125	0x3ea04fc1	0.31310847
126	0xbe2bf98c	-0.16794413
127	0x3eb1eb1b	0.34749684
128	0xbe71ae2d	-0.23601599
129	0xbc511cff	-0.012763261
130	0x3e73319a	0.2374939
131	0xbf40a0fd	-0.7524565
132	0x3e41b94f	0.18918346
133	0xbe4ce6af	-0.20009874
134	0xbf330c88	-0.69940996
135	0xbeae9fa9	-0.34106186
136	0xbeb3cadb	-0.35115704
137	0x3be10849	0.0068674427
138	0x3ed94d7d	0.4244193
139	0x3e1f3139	0.1554612
140	0xbe6a2c2b	-0.22868411
141	0x3efca373	0.49343452
142	0xbd47a5ea	-0.048742212
143	0x3eba1b95	0.36349168

conv1.bias f4 [16]
0	0x3e7d3a74	0.2472933
1	0x3d381ef2	0.044951387
2	0x3cc35235	0.02384291
3	0x3e81c719	0.25347212
4	0x3d961c9f	0.07329678
5	0xbd09ae79	-0.033613656
6	0xbcad6d33	-0.021170234
7	0x3e33a272	0.17542437
8	0x3d798bea	0.060924448
9	0x3dd94001	0.10607911
10	0x3e12e71d	0.14345975
11	0xbd4ddc1c	-0.05025874
12	0xbe3250e6	-0.17413673
13	0xbe4313b3	-0.19050483
14	0x3ee21802	0.44158942
15	0xbe927041	-0.28601268

conv2.weight f4 [32, 16, 3, 3]
0	0xbc1be58c	-0.009515177
1	0xbca8a80d	-0.020587945
2	0x3d25f416	0.04051598
3	0xbd95dd84	-0.073176414
4	0xbdd56cd0	-0.10421145
5	0x3c3cfe66	0.011535263
6	0x3ce9c9ee	0.02853867
7	0xbd416b3b	-0.047221404
8	0x3d736eee	0.059431963
9	0x3d2e7145	0.04258849
10	0x3d60a1c1	0.05484176
11	0x3c82a94e	0.015949871
12	0xbd6608e0	-0.056160808
13	0x3d1346c6	0.035956167
14	0xbd3e7ffa	-0.046508767
15	0xbbcaccc5	-0.006188961
16	0xbdc08b8f	-0.09401619
17	0xbd6464d2	-0.055760212
18	0xbd2a0c68	-0.041515738
19	0xbcfbf885	-0.030758152
20	0xbd93ae0a	-0.0721093
21	0x3c2a2806	0.010385519
22	0xbd5374b4	-0.05162497
23	0x3d401460	0.04689443
24	0xbdbbf730	-0.09178007
25	0xbd32ed98	-0.04368362
26	0x3d013136	0.03154107
27	0xbdac9d9e	-0.084285006
28	0xbd63d68e	-0.055624537
29	0x3c65ec82	0.014033439
30	0xbc28f31b	-0.010311867
31	0xbcffc4c9	-0.031221764
32	0x3b838122	0.0040131966
33	0xbd347485	-0.044056434
34	0xbddeff61	-0.108885534
35	0x3cc0bc94	0.023527421
36	0xbdbfdae9	-0.09367926
37	0x3d5d0421	0.053959016
38	0xbd988ccf	-0.07448732
39	0xb9646054	-0.0002177966
40	0xbd89b4d0	-0.0672394
41	0x3c6109c6	0.01373524
42	0xbc27912c	-0.010227483
43	0x3cb2d1d2	0.021828566
44	0x3d6fa0b1	0.058502857
45	0x3d1720da	0.036896564
46	0xbdcca08b	-0.09991559
47	0x3d123266	0.035692595
48	0x3d320eca	0.043471135
49	0xbd0a68dc	-0.033791408
50	0x3c871a4f	0.016492037
51	0x3d52c448	0.05145672
52	0xbd9dc56a	-0.07703669
53	0xbc48b822	-0.012250932
54	0xbdbd1d03	-0.09234049
55	0x3d137ecd	0.0360096
56	0xbd7de8ba	-0.061989523
57	0xbd6bb6ca	-0.057547368
58	0xbd932ea5	-0.07186631
59	0xbd8e021d	-0.06933997
60	0xbdbb57d5	-0.09147612
61	0x3bce9bdc	0.006305201
62	0xbd80dadf	-0.06291746
63	0xbda6cb64	-0.081442624
64	0xbde08c91	-0.10964311
65	0xbce17943	-0.027523642
66	0xbdceac9c	-0.100915164
67	0x3c9479e2	0.018124525
68	0xbd8e4179	-0.06946082
69	0x3d5923be	0.053012602
70	0xbca6fe71	-0.020384999
71	0xbbbebe69	-0.0058210385
72	0xbdd7e99c	-0.10542604
73	0xbcfbcad3	-0.030736363
74	0xbdb249ab	-0.08705457
75	0xbd2fe02b	-0.042938393
76	0xbdf23de4	-0.11828211
77	0xbdf42083	-0.119202636
78	0xbca48cb3	-0.020086622
79	0xbb94b01e	-0.0045375964
80	0xbdb5dab4	-0.08879605
81	0xbdb6ec23	-0.08931758
82	0xbd93f544	-0.07224515
83	0xbc9ed6c6	-0.019389521
84	0xbdd5e42b	-0.1044391
85	0xbdee75fb	-0.11643597
86	0x3c33c1cc	0.010971498
87	0xbd9fae8f	-0.07796966
88	0xbcc9cb50	-0.02463308
89	0xbdd44900	-0.10365486
90	0x3be86f4a	0.007093345
91	0xbdc0c010	-0.09411633
92	0xbd288217	-0.04113969
93	0x3d1259f4	0.035730317
94	0xbd834d1f	-0.06411194
95	0xbde61093	-0.1123363
96	0x3d164fa1	0.036697034
97	0x3c13ea85	0.009028082
98	0xbcd9895e	-0.02655476
99	0x3c0bd7af	0.00853531
100	0x3ceddd88	0.029036298
101	0x3d0c5df4	0.03426929
102	0x3c6ba738	0.01438313
103	0xbdb9381a	-0.09043904
104	0xbd8df9ce	-0.06932412
105	0xbd1d20c1	-0.038361315
106	0xbd69e0b1	-0.057099048
107	0x3d86a56a	0.06574519
108	0xbda960a4	-0.08270386
109	0xbbd472d0	-0.0064834133
110	0xbda1f5c2	-0.07908203
111	0x3cca7ccc	0.02471771
112	0xbd2f1743	-0.042746793
113	0xbd042950	-0.03226596
114	0xbd585b00	-0.05282116
115	0xbd254f0b	-0.040358584
116	0xbcb10e56	-0.021613281
117	0x3da120a1	0.078675516
118	0xbd0d43a6	-0.034488343
119	0x3d797fce	0.0609129
120	0xbda9ad5b	-0.08285018
121	0xbc200740	-0.009767354
122	0xbcdfd52c	-0.027323328
123	0x3d7b6cba	0.061382987
124	0x3cec0d44	0.02881492
125	0xbbc8b6c0	-0.006125301
126	0xbd968832	-0.07350196
127	0xbd2d6a8d	-0.042337943
128	0xbdd89c16	-0.10576646
129	0x3a662788	0.00087796943
130	0x3bae4e9b	0.005319429
131	0xbde36f8a	-0.11105259
132	0xbd7a559a	-0.061116792
133	0xbd88cf96	-0.06680219
134	0xbc3b9da3	-0.011451158
135	0xbda2418e	-0.0792266
136	0xbdd87cf8	-0.10570711
137	0x3c960756	0.018314045
138	0xbdcbd829	-0.09953339
139	0xbdd5f628	-0.10447341
140	0xbd81a5bd	-0.0633044
141	0xbcd45d3c	-0.025923364
142	0xbd6c4abe	-0.057688467
143	0x3bee4edb	0.007272584
144	0x3ea10aeb	0.31453642
145	0x3e49096d	0.19632502
146	0xbe20e0a7	-0.15710698
147	0x3ebc97be	0.3683452
148	0xbe6c624c	-0.23084372
149	0xbf3daa1b	-0.74087685
150	0x3e1d400d	0.15356465
151	0x3ca9a588	0.020708814
152	0xbea98fee	-0.33117622
153	0xbc903a31	-0.017605873
154	0x3e812a1f	0.25227448
155	0xbd23941e	-0.039936177
156	0xbf1c06ed	-0.6094807
157	0xbcd96765	-0.02653856
158	0xbd100b46	-0.035167
159	0xbe814f22	-0.25255686
160	0xbdf634b3	-0.1202177
161	0x3e6d3395	0.23164208
162	0xbb586942	-0.0033021723
163	0x3f3865b1	0.7203017
164	0x3de62443	0.11237385
165	0xbe86d1a3	-0.26331815
166	0x3e191863	0.14950709
167	0x3b9b5114	0.00473989
168	0x3ea28cae	0.31747955
169	0xbef160fa	-0.471443
170	0xbe22dcf6	-0.15904602
171	0x3e2b60dd	0.16736169
172	0x3ea11e1e	0.3146829
173	0xbe24eec4	-0.16106707
174	0xbecc0c02	-0.3985291
175	0xbd5e3967	-0.054253962
176	0xbe64cade	-0.22343013
177	0x3e71707c	0.23578066
178	0x3e927d3b	0.28611168
179	0xbe53fa1d	-0.2070088
180	0xbe047b53	-0.1293767
181	0xbc9d62bd	-0.019212121
182	0xbe05b675	-0.13057883
183	0xbd856845	-0.065140285
184	0xbd2c1167	-0.042008784
185	0x3d5ebee0	0.05438125
186	0xbe070cb6	-0.13188443
187	0x3e421e09	0.1895677
188	0x3e8900a6	0.26758307
189	0x3e2ab104	0.16669089
190	0x3e8417ac	0.2579931
191	0x3e18aaf3	0.14908962
192	0x3e8df4ba	0.27725774
193	0xbca49f0f	-0.020095376
194	0xbe3f58d4	-0.18686229
195	0x3d7e42b9	0.06207535
196	0x3e712567	0.23549424
197	0xbbe4da53	-0.006984034
198	0xbcaf9b5e	-0.02143639
199	0xbe72d548	-0.23714173
200	0x3d2e3489	0.04253057
201	0xbe20e6a8	-0.15712988
202	0xbe1b58ee	-0.15170643
203	0x3e43ca16	0.19120058
204	0xbde0aa19	-0.109699436
205	0x3de1701a	0.1100771
206	0x3d17dd43	0.037076246
207	0x3ee6edc5	0.4510328
208	0xbb6f624f	-0.0036527102
209	0xbece83ab	-0.4033483
210	0x3efbb4ef	0.4916148
211	0x3dcd1fb9	0.10015816
212	0xbed7bf60	-0.42138195
213	0x3da65cd9	0.08123178
214	0xbda741fb	-0.08166882
215	0xbd48c24c	-0.04901342
216	0x3dca5c73	0.098809145
217	0xbd817a71	-0.06322182
218	0xbe53f778	-0.2069987
219	0x3e2d3266	0.16913757
220	0xbd86ac57	-0.0657584
221	0xbe85574b	-0.26043162
222	0x3e5ea146	0.21741208
223	0x3de3e3fc	0.11127469
224	0xbe409cb3	-0.18809776
225	0xbd92c92c	-0.07167277
226	0x3e29fd13	0.16600446
227	0xbd7a75a9	-0.061147366
228	0xbe4313fd	-0.19050594
229	0xbe0234a9	-0.12715401
230	0xbdf4c7e8	-0.119521916
231	0x3d0acad7	0.03388485
232	0x3e8957cf	0.26824805
233	0xbe308f76	-0.17242226
234	0x3dff535b	0.12467071
235	0x3f0e647c	0.55622077
236	0xbd3154e9	-0.043293867
237	0x3e504c9b	0.20341723
238	0x3eb6078a	0.35552627
239	0xbe910ba5	-0.28329197
240	0xbe8721e5	-0.26393047
241	0x3ec11dd7	0.37718078
242	0xbdb93207	-0.09042745
243	0x3dc45e08	0.095882475
244	0x3cff867c	0.031192057
245	0x3c127291	0.008938448
246	0xbed23996	-0.4105956
247	0xbe97b3e9	-0.29629448
248	0xbe197284	-0.1498509
249	0xbd95786a	-0.07298358
250	0xbe62d2a0	-0.2215066
251	0x3ea9556c	0.33072984
252	0x3d6efe52	0.058348008
253	0x3d0fe96a	0.03513471
254	0xbd33f12b	-0.043931168
255	0x3d6b49ea	0.057443537

conv2.bias f4 [32]
0	0x3b073164	0.0020628804
1	0x3d0c309d	0.03422605
2	0xbcfce414	-0.030870475
3	0xbdab7287	-0.08371454
4	0xbe23fb6c	-0.16013879
5	0xbd4ab038	-0.04948446
6	0xbca22e81	-0.019797565
7	0x3dcda675	0.10041515
8	0x3d3addd8	0.045621723
9	0xbd0ec675	-0.034857232
10	0xbe0a77ab	-0.13522212
11	0xbcf57db2	-0.029967163
12	0xbdb2b432	-0.08725776
13	0xbe3c059c	-0.18361515
14	0x3c8d7406	0.017267238
15	0xbdc24212	-0.09485258
16	0xbbbea447	-0.005817923
17	0xbe4048d2	-0.18777779
18	0xbd0a554c	-0.03377275
19	0xbe13a49f	-0.14418267
20	0x3deac0e0	0.11462569
21	0xbd26dc79	-0.040737603
22	0xbdedb262	-0.116062894
23	0xbdc8e5e9	-0.09809477
24	0xbda65e09	-0.081234045
25	0xbdf341a5	-0.11877755
26	0xbcff823d	-0.031190032
27	0xba1edd19	-0.0006060168
28	0x3c701ad9	0.0146548385
29	0xbdd0fcf6	-0.102044985
30	0xbd274ee2	-0.040846713
31	0x3ce2156f	0.027598111

fc1.weight f4 [256, 512]
0	0xbc8dec7f	-0.017324684
1	0xbcad0cd5	-0.021124283
2	0x3ba606c8	0.0050667264
3	0x3c896abe	0.016774531
4	0xbc171bef	-0.0092229685
5	0x3d151dc1	0.03640533
6	0x3d5da974	0.05411668
7	0x3d6ae5fd	0.05734824
8	0xbbe2ffd5	-0.00692747
9	0xbd1c38e4	-0.038140193
10	0x3d0f0fc6	0.034927152
11	0x39b5567f	0.00034587455
12	0x3c8034d2	0.015650187
13	0xbbcb250d	-0.006199485
14	0x3d491e54	0.04910119
15	0x3b0ae4eb	0.0021193575
16	0xbe282e2f	-0.16423868
17	0xbd3324b2	-0.043736167
18	0x3deb45eb	0.11487945
19	0x3c13f7b7	0.009031228
20	0x3e89c351	0.26906827
21	0xbd5779bc	-0.05260633
22	0x3e5534aa	0.20820871
23	0xbd0db938	-0.034600466
24	0xbdffc610	-0.12488949
25	0x3ec4cac4	0.38435948
26	0xbe0459a8	-0.12924826
27	0xbd3b808b	-0.045776885
28	0xbc001c7f	-0.007819294
29	0x3ea92996	0.3303954
30	0xbee92461	-0.45535567
31	0xbeb2700d	-0.34851113
32	0x3cc3a5e2	0.02388281
33	0xbc1b9878	-0.009496801
34	0x3d3236db	0.043509346
35	0x3d219a21	0.03945363
36	0xbcebb0f2	-0.028770898
37	0xbcbd206e	-0.023086753
38	0xbcf5124b	-0.02991595
39	0xbccc4838	-0.02493678
40	0xbcc22e42	-0.023703698
41	0xbd34ab34	-0.044108585
42	0x3cf2a846	0.029621255
43	0x3c9e864e	0.01935115
44	0xbc3167d0	-0.0108279735
45	0xbca2b562	-0.01986188
46	0xbbf05690	-0.007334538
47	0xbcd57d7a	-0.026060808
48	0x3c954d54	0.01822535
49	0x3bd03e42	0.006355078
50	0x3c987889	0.018612163
51	0x3d23d4ff	0.03999805
52	0x3c99cfee	0.018775906
53	0x3d0e0c8c	0.034679934
54	0x3d91694d	0.07100163
55	0x3d4befc7	0.049789216
56	0x3d91fc60	0.07128215
57	0x3c53fc83	0.012938621
58	0x3ba2d458	0.004969161
59	0x3d155a8e	0.036463313
60	0x3d27b538	0.040944308
61	0x3d110863	0.03540839
62	0x3d80a2a3	0.062810205
63	0x3d57adec	0.0526561
64	0xbeb78d4e	-0.35849994
65	0x3e33ce75	0.17559226
66	0xbec39d47	-0.3820593
67	0xbebb589c	-0.3659104
68	0x3dca1480	0.09867191
69	0x3d81236e	0.06305586
70	0xbd63215e	-0.055451743
71	0x3e0317c0	0.12802029
72	0x3d0d1608	0.03444484
73	0xbde7881e	-0.11305259
74	0xbe8b173e	-0.2716617
75	0xbe3243d6	-0.1740869
76	0x3c95c38d	0.018281722
77	0x3cce779a	0.025203515
78	0x3d18c811	0.037300173
79	0x3dd3a3cb	0.103339754
80	0x3defb23c	0.117039174
81	0x3ddb8d34	0.10720292
82	0x3dbc3400	0.09189606
83	0x3cfaffb5	0.030639509
84	0x3e07b0ef	0.13251089
85	0x3e854abb	0.26033577
86	0xbe216db0	-0.15764499
87	0x3e903f87	0.28173468
88	0xbe295ec4	-0.16540056
89	0x3e2432ff	0.16035078
90	0xbedcbcce	-0.43112797
91	0xbe1f01d5	-0.15528043
92	0xbb063515	-0.0020478417
93	0xbe211823	-0.15731864
94	0xbec17b8f	-0.3778958
95	0xbea4142d	-0.32046643
96	0x3ea6db27	0.32589075
97	0xbe3d894d	-0.18509407
98	0xbdddf961	-0.10838581
99	0x3e2b880e	0.1675112
100	0x3eb289f9	0.3487089
101	0x3eb7c642	0.35893446
102	0x3e59c009	0.21264662
103	0xbdacd89f	-0.08439755
104	0xbd6cc2e9	-0.05780307
105	0xbe5654a3	-0.20930724
106	0x3c8c7fb2	0.017150734
107	0x3eb15077	0.34631702
108	0x3e26a52d	0.16273947
109	0x3daca040	0.08429003
110	0xbd0c2978	-0.034219235
111	0x3e1a60c5	0.15075977
112	0xbdd0bb28	-0.10191947
113	0x3d6a3725	0.057181496
114	0xbdb75caa	-0.08953221
115	0x3e0badf3	0.13640575
116	0xbe073651	-0.13204314
117	0x3d0f94c9	0.035054002
118	0xbd8f08c0	-0.06984091
119	0x3da9b4fa	0.08286472
120	0x3d3bd484	0.045856968
121	0xbf075b00	-0.5287323
122	0xbf00e9af	-0.5035657
123	0xbe9e83c7	-0.30959913
124	0x3df1c239	0.11804623
125	0x3ead5003	0.33850107
126	0x3e66325f	0.22480153
127	0xbbad701d	-0.005292906
128	0x3e40bef0	0.18822837
129	0xba111328	-0.00055341655
130	0xbd8b7d2d	-0.06810985
131	0xbcb9c490	-0.022676736
132	0x3d78409b	0.060608488
133	0x3e34ef1f	0.17669342
134	0xbec13b88	-0.3774073
135	0xbe3ae17d	-0.1825008
136	0x3e99c1b7	0.30030605
137	0xbef136d2	-0.47112137
138	0x3eb57ae2	0.35445315
139	0x3da7f62a	0.08201249
140	0x3d0b585d	0.034019817
141	0x3e2e3ca8	0.17015326
142	0xbe0331a4	-0.12811905
143	0xbe6ece5c	-0.23320907
144	0x3caedee2	0.021346513
145	0x3c17bf08	0.009261854
146	0xb90ae400	-0.00013245642
147	0x3ce0b4e4	0.027430005
148	0xbd1d02a1	-0.038332585
149	0xbd2b49b5	-0.04181834
150	0x3cbc8abe	0.023015376
151	0xbb9c1bc8	-0.004764054
152	0x3caf1bf2	0.02137563
153	0xbd1faff8	-0.038986176
154	0x3ccdb2e6	0.02510972
155	0x3cd70f6e	0.026252475
156	0x3bbff4e8	0.0058580525
157	0xbc89c4ef	-0.016817538
158	0x3c8c162e	0.01710042
159	0x3d0d8abd	0.03455614
160	0x3c3f47d8	0.011674844
161	0x3cf25bb3	0.029584741
162	0xbcf19266	-0.029488754
163	0xbca45e06	-0.020064365
164	0x3cf892ca	0.030343432
165	0x3ab00140	0.0013428107
166	0xbb95624c	-0.004558837
167	0xbc5fc734	-0.013658334
168	0x3bb0f5e8	0.005400408
169	0x3d0995e4	0.033590212
170	0x3d326fc1	0.043563608
171	0xbd18c6c0	-0.037298918
172	0xbce655e0	-0.02811712
173	0xbc62c232	-0.013840245
174	0x3c0ce328	0.00859908
175	0xbd1cd001	-0.038284305
176	0xbd18255e	-0.03714501
177	0x3ba89a40	0.005145341
178	0xbc1176d4	-0.0088784285
179	0xbd2bb782	-0.041923054
180	0x3d183255	0.037157375
181	0xbd06a9ac	-0.032876655
182	0x3d9934c1	0.07480765
183	0x3bc189a8	0.0059063025
184	0xbce8235d	-0.028337175
185	0xbbd000f9	-0.006347772
186	0x3d819120	0.063265085
187	0xbca04e6d	-0.019568646
188	0x3c23c938	0.009996705
189	0xbc184715	-0.009294291
190	0x3b706e90	0.0036686994
191	0xbcc16bfe	-0.023611065
192	0xbd531c37	-0.05154058
193	0x3d2963d2	0.04135496
194	0x3ca281ab	0.019837221
195	0xbc56cd3b	-0.013110454
196	0xbd5a2333	-0.053256225
197	0x3a9afc9a	0.0011824549
198	0x3b0bd061	0.002133392
199	0xbcfab135	-0.030602077
200	0x3d3d8be6	0.046275996
201	0x3d84ce3e	0.0648465
202	0xbbe5cc06	-0.007012847
203	0xbcf10449	-0.029420989
204	0xbac2d26e	-0.0014863738
205	0xbca4edc1	-0.020132901
206	0xbc23e609	-0.010003575
207	0xbc3d99df	-0.01157233
208	0x3d96f343	0.07370617
209	0x3d3e6441	0.04648233
210	0x3e839921	0.25702766
211	0x3eff52d0	0.49867868
212	0x3ea654f8	0.324867
213	0xbcd0bedd	-0.025481636
214	0x3e55eb4b	0.20890538
215	0xbd107e2f	-0.035276588
216	0x3e98612f	0.29761645
217	0x3d9de43b	0.07709547
218	0x3ce92c0a	0.028463382
219	0xbea556a2	-0.32292658
220	0x3e36f001	0.17864992
221	0x3cb8cb05	0.022557745
222	0x3e09246d	0.13392802
223	0x3d293c6f	0.0413174
224	0x3ddb65ca	0.10712774
225	0x3b65a0c9	0.0035038462
226	0xbdbc1da3	-0.0918534
227	0x3df479fa	0.11937328
228	0x3e87d61c	0.2653054
229	0xbdd73f36	-0.105101034
230	0xbf0578c0	-0.52137375
231	0xbe54b9bf	-0.20773982
232	0x3e3d4470	0.18483138
233	0xbeb5ae28	-0.35484433
234	0xbef15f6b	-0.4714311
235	0xbe4d8426	-0.20069942
236	0xbdae8fa3	-0.0852349
237	0x3dc65474	0.09684077
238	0x3e661ca6	0.22471866
239	0x3e0d093c	0.13773054
240	0xbb807807	-0.0039205584
241	0xbc8b8c73	-0.017034745
242	0xbd596a88	-0.05308011
243	0x3d3a5196	0.045487963
244	0x3cdc52e0	0.026894987
245	0x3d229442	0.03969217
246	0x3d2746dd	0.040839065
247	0x3d670be2	0.056407817
248	0xbcdf0849	-0.02722563
249	0xbd412945	-0.0471585
250	0xbcc9ff7d	-0.02465796
251	0x3c3bec43	0.011469903
252	0xbc552117	-0.0130083775
253	0x390e52fe	0.00013573092
254	0x3cfc6c06	0.030813228
255	0xbcb9593e	-0.022625562

fc1.bias f4 [256]
0	0xbd693c29	-0.05694214
1	0xbd2b14d0	-0.041767895
2	0x3d90124c	0.0703474
3	0x3e7fef07	0.24993525
4	0xbdef4c03	-0.1168442
5	0xbc994990	-0.018711835
6	0x3bf1e929	0.007382531
7	0xbe1d02dd	-0.15333124
8	0x3dbf3903	0.09337046
9	0xbc8fb75f	-0.017543493
10	0xbd9ffcff	-0.07811927
11	0xbe74a23e	-0.23890015
12	0xbd523060	-0.051315665
13	0x3e1ee6de	0.15517756
14	0xbc9e7752	-0.019344006
15	0xbd27445b	-0.040836673
16	0x3e126bf9	0.14299001
17	0x3c2c1df1	0.010505185
18	0xbe2a326a	-0.16620794
19	0xbd49dc1a	-0.04928217
20	0x3e9328e5	0.28742138
21	0x3ddff640	0.1093564
22	0x3c74b5c6	0.014935916
23	0x3e63cf4d	0.22247048
24	0xbe7f8987	-0.24954806
25	0xbc343115	-0.01099803
26	0xbbe30b71	-0.006928854
27	0x3d38593e	0.045006983
28	0x3d0baef7	0.034102406
29	0xbe4ea066	-0.20178375
30	0xbd635e4a	-0.055509843
31	0x3e3e5df4	0.18590528
32	0x3e0a82d1	0.13526465
33	0x3daa8159	0.08325452
34	0xbd383bd9	-0.04497895
35	0x3d03b8f6	0.032158814
36	0x3dfb5ed1	0.12273944
37	0xbd611a17	-0.05495652
38	0xbe0abe67	-0.13549195
39	0xbdb235ef	-0.08701693
40	0xbc26ae49	-0.010173389
41	0x3d8c784b	0.068588816
42	0x3de90c11	0.113792546
43	0xbda31cae	-0.079644546
44	0xbd90a830	-0.07063329
45	0x3c595afd	0.013266322
46	0xbd151aa4	-0.03640236
47	0xbd71d81a	-0.05904398
48	0x39c18d36	0.0003691704
49	0xbd9035c1	-0.07041503
50	0xbd77f883	-0.060539734
51	0x3cc5f0d9	0.024162697
52	0xbd166cbd	-0.036724795
53	0xbd1cbe1b	-0.038267236
54	0xbc873d22	-0.016508643
55	0xbd561d0f	-0.052273806
56	0xbd148e10	-0.036268294
57	0xbc90a21e	-0.017655428
58	0x3e55b471	0.20869614
59	0xbdcc3215	-0.0997049
60	0xbd97b11a	-0.07406826
61	0xbd180adc	-0.03711973
62	0xbe0bcf40	-0.13653278
63	0xbd45c267	-0.0482811
64	0x3cb59844	0.022167332
65	0xbd925497	-0.071450405
66	0xbd7c1fae	-0.06155365
67	0x3d23aaaf	0.0399577
68	0xbd9126db	-0.07087489
69	0xbd450770	-0.048102796
70	0xbccde830	-0.02513513
71	0xbd5a1770	-0.053245008
72	0x3cd5333c	0.026025407
73	0xbc1755aa	-0.0092367325
74	0xbd115c7f	-0.0354886
75	0xbda196f4	-0.0789012
76	0x3cd4e1ca	0.02598657
77	0x3d845d92	0.064631596
78	0xbdb8e785	-0.09028534
79	0x3c420c6e	0.011843784
80	0x3d7b053d	0.061284292
81	0xbe371799	-0.17880096
82	0xbcfe78e7	-0.03106351
83	0xbe08b433	-0.1334999
84	0xbbd36194	-0.006450841
85	0xbcb7d12d	-0.02243861
86	0x3dfba343	0.12286999
87	0xbdca439b	-0.09876176
88	0xbcc08f2c	-0.02350577
89	0x3db87fb2	0.09008731
90	0xbcbe0b8e	-0.02319887
91	0xbd18e2ba	-0.0373256
92	0x3c9ed10f	0.019386796
93	0xbd9556d5	-0.072919525
94	0x3b88f54d	0.0041796328
95	0xbcfcaf23	-0.03084523
96	0x3c32b833	0.010908174
97	0x3e228bde	0.15873668
98	0x3e1f4c49	0.15556444
99	0xbce2c9be	-0.027684089
100	0x3e034d24	0.12822396
101	0x3d97d52b	0.074137054
102	0xbd60eb56	-0.054911934
103	0xbc9dcccb	-0.019262692
104	0x3d57bea5	0.052672047
105	0xbe4f4d1e	-0.20244262
106	0x3e6f3ba5	0.23362596
107	0xbde1c567	-0.1102398
108	0xbd529a4f	-0.05141669
109	0xbc655b4f	-0.01399882
110	0xbdb434ab	-0.08799108
111	0x3e4d8b2c	0.20072621
112	0xbd640abc	-0.0556743
113	0xbe4c9c0b	-0.199814
114	0xbddce43e	-0.10785721
115	0xbd6fc5ae	-0.05853813
116	0x3e49d7e7	0.19711266
117	0xbd28880a	-0.041145362
118	0xbcb55795	-0.022136489
119	0x3d516afa	0.05112741
120	0x3b6b5e3d	0.0035914325
121	0x3a88b32f	0.0010429377
122	0x3d0b508e	0.03401237
123	0x3c4965ab	0.012292306
124	0x3dd39d8a	0.103327826
125	0xbcabb0ad	-0.020958269
126	0x3c0d4024	0.008621249
127	0xbd14fe26	-0.036375187
128	0x3ce70889	0.028202312
129	0xbd849d7d	-0.06475351
130	0xbe60d557	-0.21956383
131	0x3de6bbf5	0.11266319
132	0x3e23ed2b	0.16008441
133	0x3ccb33cc	0.024804972
134	0xbcff3f41	-0.031158092
135	0x3cf28d9a	0.029608537
136	0xbc864e8f	-0.016394882
137	0x3e5343fc	0.20631403
138	0xbd89177d	-0.06693933
139	0xbdbda19e	-0.09259342
140	0xbda4a9f1	-0.08040226
141	0xbd2b95aa	-0.041890778
142	0x3d7fdc91	0.062466208
143	0xbe1345c5	-0.14382084
144	0xbd53c550	-0.051701844
145	0xbdf6ec8b	-0.12056836
146	0x39b5c774	0.00034671614
147	0xbe103da2	-0.14086011
148	0xbdc7d5f6	-0.09757607
149	0xbbf516cf	-0.0074795256
150	0xbd2965dd	-0.04135691
151	0x3e50078d	0.2031538
152	0xbd98721a	-0.07443638
153	0xbe02b442	-0.12764075
154	0x3d2fac4c	0.042888924
155	0x3c068302	0.008209946
156	0x3d5652f8	0.05232522
157	0x3d98cd1f	0.07460999
158	0xbe0b5f57	-0.13610588
159	0x3bc1f753	0.005919376
160	0xbdc6e7ac	-0.09712157
161	0xbd5e29e5	-0.054239172
162	0x3e157b20	0.1459775
163	0x3e420429	0.189469
164	0x3dd30335	0.10303346
165	0xbe86f703	-0.2636033
166	0x3de841c8	0.11340672
167	0x3a9a0def	0.001175342
168	0xbb08344a	-0.002078312
169	0x3e344a4d	0.17606468
170	0xbc5553ac	-0.013020437
171	0x3db50530	0.0883888
172	0xbdb9c8a1	-0.0907147
173	0xbddbd526	-0.10734014
174	0x3bc01723	0.005862133
175	0xbe39d0b1	-0.18146016
176	0x3d1b755e	0.037953727
177	0xbc2291c0	-0.009922445
178	0xbdae0197	-0.08496397
179	0x3e8b0a0c	0.27156103
180	0x3e1d57d3	0.15365534
181	0xbd62b37c	-0.05534695
182	0xbc66a302	-0.01407695
183	0xbd10c874	-0.035347417
184	0xbd4d8319	-0.050173853
185	0xbd0c64f8	-0.03427598
186	0xbd1ec9bb	-0.038766604
187	0xbbdb753c	-0.006697325
188	0xbc846dc3	-0.01616562
189	0x3d8a0764	0.06739691
190	0xbd4b7972	-0.049676366
191	0xbb919229	-0.0044424725
192	0xbd2fa014	-0.04287727
193	0xbd512f8d	-0.05107074
194	0xbe6dd5f3	-0.23226146
195	0xbd5f8f14	-0.05457981
196	0xbc4a56e4	-0.012349818
197	0x3e6fe962	0.23428872
198	0x3c0ddc7e	0.008658526
199	0x3ddebfb6	0.1087641
200	0xbdb7447e	-0.08948611
201	0x3e81ebe1	0.25375274
202	0x3e0fc59e	0.14040229
203	0x3db701ce	0.08935891
204	0xbd0df3ce	-0.03465634
205	0xbde509d9	-0.11183519
206	0x3d85056a	0.06495173
207	0xbc81cd95	-0.0158451
208	0x3e094821	0.13406421
209	0xbcee8d74	-0.029120184
210	0xbc9b38b8	-0.018947944
211	0xbd0aec40	-0.03391671
212	0xbe0f4a3f	-0.13993166
213	0x3da58b0f	0.08083164
214	0xbe0a9a69	-0.13535465
215	0x3df187ca	0.11793478
216	0x3df7bfa8	0.120971024
217	0xbc4af5d3	-0.012387711
218	0xbd704e4e	-0.058668427
219	0xbca47ccc	-0.020079039
220	0x3e6a01a2	0.22852185
221	0xbd85162d	-0.0649837
222	0x3da7c0f2	0.08191098
223	0x3d548c2e	0.0518915
224	0xbd667082	-0.05625964
225	0xbd2ed8bb	-0.04268716
226	0x3e3e5165	0.18585737
227	0xbd8278ca	-0.06370695
228	0x3c29386b	0.0103283925
229	0x3d1c0c39	0.038097594
230	0xbc9e5fc6	-0.019332778
231	0xbd7529cf	-0.059854325
232	0xbd78b44e	-0.060718827
233	0xbe068935	-0.13138278
234	0x3e300950	0.17191052
235	0xbd9f039a	-0.07764359
236	0x3e2ec876	0.17068657
237	0x3e09d1d3	0.13458948
238	0x3d8ba1b3	0.06817951
239	0x3c821b91	0.015882285
240	0x3e62c664	0.22145993
241	0xbd91f9cd	-0.07127724
242	0xbc2ea6c6	-0.010659879
243	0xbb4097e9	-0.002938742
244	0xbe54f746	-0.20797452
245	0x3cd753f9	0.026285158
246	0x3bf21923	0.0073882504
247	0x3d9ce8b8	0.07661575
248	0x3da8a6d9	0.08234949
249	0x3e4a9739	0.1978425
250	0xbd3c459b	-0.04596482
251	0xbd96cb55	-0.07363001
252	0x3d6e7d81	0.05822516
253	0xbd8afdee	-0.067867145
254	0x3dce35b2	0.10068835
255	0xbd764156	-0.060120903

fc2.weight f4 [2, 256]
0	0xbef8bfc7	-0.48583815
1	0x38f4ccdc	0.00011672985
2	0x3e9d0e00	0.30674744
3	0x3dc5a5a6	0.096507356
4	0xbebeb6ae	-0.3724875
5	0x3cdbc777	0.02682851
6	0xbcfdb664	-0.03097076
7	0xbe8730d9	-0.26404455
8	0x3d97f07f	0.07418918
9	0x3ce2b1dd	0.027672702
10	0xbc274e74	-0.010211576
11	0xbd034521	-0.03204835
12	0x3c2f6527	0.010705269
13	0x3e7da0a4	0.24768311
14	0x3c7e49ea	0.015520552
15	0x3cc6c6cb	0.024264714
16	0x3e3666bc	0.17812628
17	0x3ca1a718	0.019732997
18	0xbef6a67c	-0.48173892
19	0xbc832522	-0.016008917
20	0x3f035812	0.5130626
21	0x3e89d96c	0.26923692
22	0x3ced96ac	0.02900251
23	0x3e9d60a7	0.30737802
24	0xbee2786d	-0.44232503
25	0xbc85ca29	-0.016331749
26	0xbf256870	-0.64612484
27	0xbd47bde6	-0.048765086
28	0xbd275871	-0.04085583
29	0xbe84fd21	-0.25974372
30	0xbd3e65a9	-0.04648367
31	0x3e343d9e	0.1760163
32	0x3f2dd8c2	0.6790887
33	0x3e052276	0.13001427
34	0xbbe46fee	-0.006971351
35	0x3be119fa	0.0068695517
36	0x3e8d483f	0.27594182
37	0x3909e7de	0.00013151715
38	0x3cf878aa	0.030330975
39	0xbecf52e5	-0.4049293
40	0xbb8848b1	-0.004159056
41	0x3e413289	0.18866934
42	0x3e591f52	0.21203354
43	0xbed1173f	-0.40838048
44	0xbf4a2438	-0.78961515
45	0xbdcba39a	-0.09943314
46	0x3cfde33a	0.03099214
47	0x3d695c51	0.056972805
48	0x3c111203	0.008854392
49	0x3e191293	0.14948492
50	0xbbb56731	-0.005535983
51	0x3da86ad7	0.08223503
52	0x3b6ec06e	0.0036430615
53	0x3c8b45e9	0.01700111
54	0xbcebca12	-0.028782878
55	0xbdde06e5	-0.10841159
56	0xbcdfc25c	-0.027314357
57	0xbc5b410c	-0.013382208
58	0x3ec4f7f4	0.38470423
59	0xbe21c66f	-0.15798353
60	0xbc8ee1f7	-0.017441733
61	0xbf02716c	-0.5095432
62	0xba428d7f	-0.0007421597
63	0xbcbfe572	-0.023424838
64	0xbb1b2638	-0.0023673903
65	0xbcb03d21	-0.021513524
66	0xbe80c278	-0.25148368
67	0xbd07f752	-0.033194847
68	0xbf49f6e7	-0.7889237
69	0x3d82eae4	0.06392458
70	0xbb88b8e4	-0.0041724313
71	0x3cad8a64	0.021184154
72	0x3ec32c77	0.3811986
73	0xbc7166bd	-0.014733967
74	0xbf16c986	-0.5890125
75	0xbeac62ce	-0.33669132
76	0x3dee49c3	0.11635163
77	0x3e697ad7	0.22800766
78	0x3d94e78f	0.07270729
79	0xbe36b352	-0.17841843
80	0x3e280539	0.16408242
81	0xbdb8d5a3	-0.09025123
82	0xbe03def9	-0.12878026
83	0xbc29808d	-0.01034559
84	0xbe3a60bf	-0.18200968
85	0xbce65582	-0.028116945
86	0x3e617c3f	0.22020052
87	0x3c9a5189	0.018837707
88	0xbe39fcff	-0.18162917
89	0x3e197202	0.14984897
90	0x3ce546bf	0.027987836
91	0x3b4c00ab	0.0031128328
92	0x3cdd9b0e	0.027051475
93	0xbd0e66d7	-0.034766044
94	0xbc12bb90	-0.008955851
95	0xbadebc9b	-0.0016993465
96	0x3d05d5bc	0.032674536
97	0x3f2f4fc6	0.684811
98	0x3e51bbf2	0.20481852
99	0x3d0ae519	0.03390989
100	0x3e99f9fd	0.30073538
101	0x3e3a6205	0.18201454
102	0xbce24411	-0.027620347
103	0xb9d5db06	-0.0004078971
104	0xbf436556	-0.763265
105	0xbc1305e0	-0.008973569
106	0x3e82f4d6	0.2557742
107	0x3d03dfad	0.032195736
108	0xbf04d8c4	-0.5189326
109	0x3cb26d30	0.02178058
110	0x3ca42a27	0.020039631
111	0x3ec26479	0.3796728
112	0xbc107b19	-0.008818411
113	0xbe251aa2	-0.16123441
114	0xbe4f1650	-0.20223355
115	0xbc4ea044	-0.0126114525
116	0x3e10e932	0.14151457
117	0x3cb2b12a	0.021812994
118	0xbae5e2d9	-0.0017538919
119	0x3e2bb506	0.16768274
120	0x3ac89ee4	0.0015306142
121	0xbe0e0b1a	-0.13871422
122	0xbe15924e	-0.14606592
123	0xbc8e86ee	-0.017398324
124	0xbeddf471	-0.43350556
125	0x3bc38654	0.005966941
126	0x3e75763d	0.23970886
127	0xbd909ff7	-0.07061761
128	0x3f22abb2	0.63543236
129	0xbea6856d	-0.3252367
130	0xbe9de92d	-0.30841962
131	0x3e0ebfc4	0.1394034
132	0x3e731217	0.2373737
133	0x3ee9ec6e	0.45688194
134	0x39576a7f	0.0002054367
135	0x3c51f156	0.012813887
136	0xbcd8e3a5	-0.026475737
137	0x3ea09ace	0.31368107
138	0x3d08ff34	0.033446506
139	0x3e3bec27	0.18351804
140	0xbc8ba425	-0.017046044
141	0xbd077832	-0.03307361
142	0x3ddf8dd0	0.109157205
143	0xbdd8ec19	-0.10591907
144	0x3c3ff096	0.011715075
145	0xbe075d47	-0.13219176
146	0x3e8a563b	0.27018914
147	0xbf0bce55	-0.5461171
148	0xbac2f565	-0.0014874159
149	0xbe179458	-0.14802682
150	0xbcd8584e	-0.026409294
151	0x3f003626	0.50082624
152	0xbec7f9f4	-0.39057887
153	0xbd698162	-0.057008155
154	0xbf43a238	-0.764194
155	0xbcbba4da	-0.022905756
156	0xbee173f9	-0.44033793
157	0xbf439c3f	-0.7641029
158	0xbd63573c	-0.055503115
159	0xbf128efb	-0.5724942
160	0xbf25daaa	-0.6478678
161	0xbd37bd88	-0.044858485
162	0x3df67671	0.1203431
163	0x3eae43ac	0.34036005
164	0x3e3f2983	0.18668179
165	0xbcaab95a	-0.020840336
166	0x3ee9adce	0.45640415
167	0xbe605400	-0.21907043
168	0xbd889bac	-0.06670317
169	0x3e6d91f3	0.23200206
170	0xbd4aca12	-0.049509116
171	0x3c383d41	0.011245073
172	0xbedc10df	-0.42981622
173	0xbd32ccbe	-0.04365229
174	0x3d4ce1e4	0.050020114
175	0xbe8a6a71	-0.27034333
176	0x3d9495b7	0.07255118
177	0x3d13f6be	0.036123984
178	0x3cba409e	0.02273589
179	0x3f182c75	0.59442836
180	0xbf9b0820	-1.2111855
181	0xbd11a27d	-0.03555535
182	0x3d281917	0.041039553
183	0xbc5bc4c9	-0.013413616
184	0xbd5e94c6	-0.0543411
185	0x3c9d98c4	0.019237883
186	0x3bf034f9	0.0073305336
187	0x3c4498f0	0.011999354
188	0xbd233cd1	-0.03985292
189	0x3e87479c	0.2642182
190	0xbd2fc83f	-0.04291558
191	0x3cab6eb9	0.02092682
192	0xbc6ea6c1	-0.014566124
193	0x3e5d0683	0.21584515
194	0xbd17ea09	-0.037088428
195	0x3c7c7f3e	0.015411196
196	0x3d219285	0.039446373
197	0x3eed9339	0.46401384
198	0x3c7c1833	0.015386629
199	0x3e100eaa	0.14068094
200	0xbe967cd1	-0.29392102
201	0x3ed58b7b	0.41707978
202	0x3dd3f307	0.10349088
203	0x3e1d6414	0.15370208
204	0xbc04c2cb	-0.008103083
205	0x3cdeb514	0.027185954
206	0x3dcec497	0.1009609
207	0xbb5be289	-0.0033551774
208	0x3e302f78	0.17205608
209	0x3d825cc7	0.06365352
210	0x3ecc5905	0.39911667
211	0xbe3f70cf	-0.18695377
212	0xbee7fb6a	-0.45309
213	0x3dd4c69e	0.10389446
214	0xbe624a0d	-0.2209856
215	0x3e6d44de	0.23170802
216	0x3e1a5b79	0.15073957
217	0xbf1136ed	-0.56724435
218	0x3c826471	0.015917035
219	0xbcaef1c5	-0.02135552
220	0x3f09e136	0.5385927
221	0xbe204f89	-0.1565534
222	0x3ed26e48	0.41099763
223	0x3e199897	0.14999615
224	0x3cc09ff1	0.023513766
225	0x3ba7e725	0.00512399
226	0x3efdf016	0.49597234
227	0xbd3fef46	-0.04685905
228	0x3d06e19d	0.032930005
229	0xbf665e81	-0.8998795
230	0xbea81905	-0.32831588
231	0xbc9fd1ec	-0.019509278
232	0x3d3e2842	0.04642511
233	0xbd9d361b	-0.076763354
234	0x3e9afab3	0.30269393
235	0x3f213344	0.6296885
236	0x3eba602b	0.36401495
237	0x3ef31096	0.47473592
238	0x3e047c75	0.12938102
239	0x3b1c551a	0.0023854435
240	0x3f02cc0d	0.51092607
241	0xbd11bae3	-0.03557862
242	0x3c63cac9	0.013903328
243	0xbd1b6512	-0.037938185
244	0x3d79766b	0.060903948
245	0x3e4de2ed	0.20106097
246	0x3c9c572b	0.019084534
247	0x3ec301d1	0.38087323
248	0x3f067449	0.5252119
249	0x3e147a91	0.1449988
250	0x3d5426ed	0.051794935
251	0x3becbc1f	0.007224574
252	0x3de5e084	0.112244636
253	0x3a0f3687	0.00054631423
254	0x3e22c3fc	0.15895075
255	0xbb9f340c	-0.0048584994

fc2.bias f4 [2]
0	0x3e858f48	0.26085877
1	0xbe397d6d	-0.18114252
