Saved Models/model_eqtest.pt (torch, 549551 bytes, 8 tensors)

conv1.weight f4 [16, 1, 3, 3]
000000 9d 84 71 bd e8 0f fb be ee a0 3a 3d 00 a7 db be
       -0.05896436 -0.49035573 0.04556363 -0.42900848
000010 5e 93 15 3e 3c 04 fe 3e 36 8e fd 3d 73 3c 3d be
       0.14606997 0.49612606 0.1238064 -0.18480091
000020 9f d3 39 3e 2c 09 d1 3e 98 e9 a7 3d 6d 9b 03 bf
       0.18147133 0.4082731 0.08198851 -0.51409036
000030 22 8e b7 bd 37 a0 80 3e 51 2c 0d be 81 3b 56 3d
       -0.089626566 0.25122234 -0.13786437 0.05230284
000040 b6 30 ab 3e 61 48 6b bd 47 cc 4b 3b 13 a4 01 be
       0.334356 -0.057442073 0.00310971 -0.12660246
000050 db 60 8b 3d 12 d1 6f 3e aa 99 bb 3e 1e 5a e1 3e
       0.06805583 0.23419598 0.36640674 0.44014066
000060 b9 cf e8 be d9 ad 97 be 6d 0d ab bd 76 7c 54 3d
       -0.4547098 -0.29624823 -0.0835217 0.051876508
000070 09 03 6d 3e b8 66 0b bf 18 81 06 bf 10 14 ec 3e
       0.23145689 -0.5445361 -0.5254073 0.46109056
000080 28 9e 98 3e 75 66 09 be d2 01 03 3e 62 f2 35 be
       0.29808164 -0.1341799 0.12793663 -0.17768243
000090 73 0f b7 3e 2f 9b 8b 3e 50 a2 ff be 1a 9c c7 bd
       0.35753974 0.27266833 -0.49928522 -0.09746571
0000a0 ef 46 d8 3d 69 aa 0a bf 6c 9a 1b bf 45 67 3f 3d
       0.105604045 -0.54166275 -0.60782504 0.046729345
0000b0 21 63 19 3f 62 1f d1 be 8b 54 3c bf 41 a3 fe 3c
       0.59916884 -0.40844256 -0.735665 0.031083705
0000c0 87 72 1f 3e 30 44 eb be 28 75 23 3e aa 70 0d bc
       0.15571032 -0.4595046 0.1596266 -0.008632818
0000d0 c7 bb 87 3e 07 94 ab 3e 4e 6f 14 be 58 3c 05 bf
       0.2651045 0.33511373 -0.14495584 -0.520452
0000e0 b0 bf 0f be 72 46 35 3f 7c a5 c1 be f5 39 b8 be
       -0.14037967 0.70810616 -0.37821567 -0.35981718
0000f0 5e 97 af 3e 43 fc 67 3d 77 49 4c bf 00 ea fc bd
       0.34295171 0.05663706 -0.797996 -0.123493195
000100 23 1e d0 be 5f 03 5b 3e 93 07 10 bf ab 8c 9a be
       -0.40647992 0.21388005 -0.5626156 -0.30185446
000110 a5 9b 28 3f c6 29 bb be 7d ca e0 be 6c 88 0e 3f
       0.65862495 -0.36555308 -0.43904486 0.55676913
000120 20 56 6c bc 71 d1 9f bd 06 e9 68 be b9 d4 03 3e
       -0.014424831 -0.0780362 -0.22745141 0.12874116
000130 87 34 ca 3e 1d 97 04 bd 8e 17 a2 3e 0a e7 b5 3d
       0.394932 -0.032370675 0.31658596 0.08881958
000140 7e d8 0f 3e 59 25 b9 be ed 65 c3 be f0 36 99 be
       0.14047429 -0.36161307 -0.381637 -0.29924726
000150 af cc 41 bc f1 af 90 be 5b 3c 4e 3d 3a c9 f7 3e
       -0.0118285855 -0.28259233 0.05035053 0.4839571
000160 81 fb f6 3e 33 e0 90 3e bb 9b 96 be 98 de 5c be
       0.48238757 0.2829605 -0.29415688 -0.21569288
000170 ef b6 f8 3d 84 0b 16 be 63 de 77 3d 93 b8 9d be
       0.12144267 -0.1465283 0.06051482 -0.3080488
000180 2a 67 a2 be 7a ec ce bd 4e 62 ad be 68 25 fa be
       -0.31719333 -0.10103698 -0.33864063 -0.48856664
000190 3e 90 93 3e ae 79 93 3c 0d 82 78 bd 15 50 2a 3e
       0.28820986 0.018002357 -0.0606709 0.16632111
0001a0 d9 1e 69 3e e9 b2 a5 3e 31 3c 37 3e 31 55 fb 3d
       0.22765674 0.3236306 0.17894055 0.12272108
0001b0 e4 94 76 bb 2b 01 aa 3e 0d 62 c5 bc 51 f2 96 3e
       -0.0037625367 0.33204016 -0.024094606 0.29481748
0001c0 6c 7f 74 be 2f e4 0e bf 90 8c 07 3f fa 9d 89 3e
       -0.23876733 -0.5581693 0.52948856 0.2687834
0001d0 5e b0 de be 76 30 5d be 38 57 97 3d 8b ac 96 be
       -0.43493932 -0.21600518 0.073896825 -0.29428515
0001e0 46 d0 99 be 8b 8f c5 3d 42 92 de 3d 94 b7 83 3e
       -0.30041713 0.09646519 0.1086774 0.25725996
0001f0 8e 7f 92 bc 99 63 2e bd 50 40 f2 3d 45 9b 1e 3f
       -0.017883088 -0.042575452 0.11828673 0.6195567
000200 8b 56 33 bd 0d c3 d4 be 96 5e e6 3d fc 1b 09 bf
       -0.043783706 -0.41555062 0.112485096 -0.53558326
000210 94 32 30 be 6d eb 9a 3e 60 dd 00 3d 00 7b 5b bd
       -0.17206794 0.3025774 0.03146112 -0.0535841
000220 3c 1b 9c 3d 92 68 20 bd 2c fe 16 bf 26 50 24 bf
       0.07622382 -0.039162226 -0.58981586 -0.64184797
000230 0b f9 00 bf 6f ed 11 3d f3 f0 b5 3d c1 fb 9e bd
       -0.5038001 0.035626825 0.08883848 -0.07762862

conv1.bias f4 [16]
000000 27 91 6f 3d fc e3 e4 bd 39 88 4b bd 8c f4 8a 3d
       0.058488037 -0.11176297 -0.04969046 0.06784925
000010 b9 b6 b1 3d da 1f d9 bc a7 38 58 3e 5d 86 76 3e
       0.0867743 -0.026504446 0.21115361 0.24074693
000020 66 02 cf bd bf 1f 2a 3c 1d 33 2c bd 54 c5 bd be
       -0.10107879 0.010383545 -0.042040933 -0.37064612
000030 f7 ad 9c bd 43 6e 17 be aa 0b d7 bc 0a eb c3 3e
       -0.07650369 -0.14788155 -0.026250679 0.38265258

conv2.weight f4 [32, 16, 3, 3]
000000 a2 6d d0 bd 17 50 a0 be 71 5d 26 bd 3c d0 2c 3d
       -0.10177161 -0.31311104 -0.040616456 0.042190775
000010 37 bd 37 be e3 0a 85 3d 24 08 d4 bd 62 c4 60 3e
       -0.17943273 0.06496217 -0.10353115 0.21949914
000020 c8 5c dc bc 7e 45 65 be b9 d4 9d bd 0c 0c 1a 3e
       -0.02689971 -0.2238979 -0.07706589 0.15043658
000030 11 7d 73 3e 95 6b 71 3d 09 13 86 be aa 1a c6 bd
       0.23778178 0.05894049 -0.26186398 -0.096730545
000040 49 d4 15 3d 2e 4b 88 3e 33 3b 8d bd 73 fb bf 3d
       0.036579404 0.26619858 -0.06896057 0.09374132
000050 ac 04 b0 3d 47 0e 60 3c ea 1b cf bd 52 57 82 3d
       0.08594641 0.013675279 -0.10112746 0.06364311
000060 81 6b c5 3d b3 82 5f 3e 7d da 81 3d 14 42 29 be
       0.09639645 0.21827202 0.063405015 -0.16529113
000070 06 e5 dd 3d 56 d3 81 3e 62 75 87 be ef e8 9e be
       0.108346984 0.2535655 -0.26456743 -0.3103709
000080 b0 35 26 3d 07 c2 6f 3e 59 9f 6e bd e4 e9 ab be
       0.040578544 0.2341386 -0.058257435 -0.33576882
000090 68 2b 99 be ab d7 8e be b3 92 e0 3e 4d 12 8a bd
       -0.2991593 -0.27898917 0.43861923 -0.06741772
0000a0 1b 5d 84 be 0a 18 01 bc 48 49 b3 bd c1 51 93 bc
       -0.25852284 -0.0078792665 -0.08754212 -0.01798332
0000b0 2f 78 2e be fe 4a 62 be f1 4b 21 be 92 ae a9 bd
       -0.17038034 -0.2209892 -0.15751626 -0.0828525
0000c0 56 62 c3 3d 5d d7 8f 3d 9d 1b 35 3e c5 ec 66 bd
       0.095402405 0.07023499 0.17686315 -0.056378145
0000d0 06 2f 4f 3e ba b1 e8 bb 56 4d 0f bd 6d ee 8f bf
       0.20232782 -0.007101265 -0.034985863 -1.1244637
0000e0 22 4c 3d bf 2a 26 00 3f c0 cd ce 3e f5 1f d3 3d
       -0.73944294 0.50058234 0.4039135 0.1030883
0000f0 4f ab 01 be 20 31 be 3d ff e8 97 3e e2 20 f0 3d
       -0.12663005 0.092867136 0.2966995 0.11725022
000100 2e 0a 88 3d 33 71 8b 3c 7c f9 8e be 57 b8 cb be
       0.066425666 0.017021751 -0.27924716 -0.39789078
000110 90 b6 05 bc 74 a8 61 3d 76 ee 94 bd ea 9c ff be
       -0.008161202 0.05509229 -0.07272045 -0.49924403
000120 6a 55 e0 bd 08 c9 aa bd 8c 8f 04 3e a0 1c 26 3e
       -0.109537914 -0.08339125 0.12945384 0.16221857
000130 22 3f d5 3d f1 fb 53 bd c4 e4 54 be 32 d4 1f 3d
       0.10412432 -0.051753942 -0.20790392 0.039020725
000140 21 98 45 3e e1 be 3f 3d 65 f3 c2 be 6d be b7 be
       0.19296314 0.046812896 -0.3807632 -0.3588747
000150 b6 d5 34 3e be b6 17 3e 4e 0c 3f 3d 8c b4 98 be
       0.17659649 0.14815804 0.046642594 -0.29825246
000160 43 3e 97 bd 7b d4 58 be 83 bf d1 3c ee dd 26 3c
       -0.07384922 -0.21174805 0.025604015 0.010184748
000170 73 c7 4d 3d fb fe 26 bd c0 66 0d bd f5 c9 93 3d
       0.050239038 -0.040770512 -0.03452182 0.072162546
000180 66 e3 39 bd f5 e0 28 bd 1e c6 c9 bd 0c ca b5 3c
       -0.04538288 -0.04123016 -0.09852241 0.02219107
000190 86 12 00 bd 4d e8 b5 3d 0b 8f 20 be 19 ab 83 be
       -0.031267665 0.088821985 -0.15679567 -0.25716475
0001a0 23 ad 47 3e 98 05 33 be 8c 5d 89 3d 10 a2 1d 3e
       0.1949964 -0.17482603 0.06707296 0.15393853
0001b0 cc a7 08 3e c2 f2 aa be fb 71 5d be 95 88 3f 3e
       0.1334526 -0.33388335 -0.21625511 0.18704446
0001c0 92 98 f8 3d ec c7 aa 3e ec a6 ff be bc 66 39 be
       0.121384755 0.33355653 -0.4993204 -0.18105596
0001d0 e3 e1 7d 3d db 89 b0 bd 99 d6 15 be ed 15 14 3e
       0.061983 -0.08620044 -0.14632644 0.14461489
0001e0 0c b7 1c 3e a2 3f c8 3d 4b d4 47 3d 8d 35 ab bd
       0.15304202 0.09777762 0.048786443 -0.083598234
0001f0 dd eb 0d 3e 63 89 62 3e 7d 2a 4c 3d 5f 00 0f bd
       0.13859506 0.22122721 0.049845207 -0.034912463
000200 af 1f 13 be 3b 1f 81 be 82 62 d3 3d 0b 67 00 3f
       -0.14367555 -0.2521914 0.10321523 0.5015723
000210 b6 1d 2e be 04 00 a7 be 30 b8 a3 be 30 37 00 3f
       -0.17003521 -0.326172 -0.3197646 0.5008421
000220 ee 82 1c 3e b1 b2 ab be b7 a9 fb bc 50 4e 79 3e
       0.1528432 -0.33534768 -0.030720575 0.2434628
000230 ad 06 a3 3e cf 1c 75 3e 89 a5 5a be 80 b4 a8 3c
       0.3184103 0.23936771 -0.21352209 0.020593882
000240 fb 2d 70 3d b9 b8 cb bb 85 c7 26 3d 92 69 7c bd
       0.0586376 -0.006217089 0.04071762 -0.061624117
000250 22 62 bb bd 62 d0 99 3c 54 5d 04 bd c6 90 3f 3d
       -0.09149577 0.018776122 -0.032315567 0.046768926
000260 14 08 8d bd ac 02 01 3d d4 11 89 3b c3 92 8f 3b
       -0.068863064 0.03149669 0.0041830335 0.004381509
000270 be 03 84 bd 16 e4 8d bc 28 3c b3 3c 1d 11 3e bd
       -0.06446026 -0.017320674 0.02187927 -0.04640304
000280 b4 87 d9 bc 86 f0 9d bd 1f 8c 38 3d f9 05 cd bd
       -0.026553966 -0.07711892 0.045055505 -0.10010905
000290 e2 d7 a8 bd 9f 8b 51 bb 04 61 4a bc ab 0e 52 bc
       -0.082443014 -0.003197409 -0.012352232 -0.01282088
0002a0 f0 33 5d 3d 18 74 61 bd 8f de 6c bd 10 bf 48 3c
       0.05400461 -0.055042356 -0.057829436 0.012252584
0002b0 dc a8 34 3d 7f d4 65 3d b2 72 e0 bd 31 28 3a bd
       0.04410635 0.056110855 -0.109593764 -0.045448486
0002c0 39 9e 11 3d 9d 83 8d bc cd c0 bb bc f7 fa 35 bd
       0.035551284 -0.017274672 -0.022919083 -0.04442879
0002d0 3c 3e ad bd 96 d9 0d bc 0b 5d 18 bd c4 ab bc 3c
       -0.08459136 -0.008657834 -0.037198108 0.023031123
0002e0 ae ff 0f 3d 9f d8 c5 bd 48 7c 35 bd 44 f3 14 3d
       0.035155945 -0.09660458 -0.044307977 0.03636481
0002f0 33 64 85 bd a9 e2 35 bd 0d 80 2b 3d cc 7b a1 bd
       -0.06513252 -0.044405613 0.041870166 -0.078849405
000300 19 aa 14 3d 34 aa e1 bd 9f b1 26 3b 4a e4 03 bc
       0.03629503 -0.11018792 0.002543546 -0.008050034
000310 12 41 75 3d ca 06 33 3d 0e aa 3f 3d 8d bf 15 3e
       0.05987651 0.043707646 0.046793036 0.14623852
000320 7c fb 08 3d 39 a4 90 3d d8 4c 46 3c 1a 53 28 3d
       0.03344296 0.07062573 0.012103282 0.041094877
000330 4f 2b e2 3c 0e 26 de 3d 1b 81 1c 3e 72 4e 13 bc
       0.027608542 0.10847102 0.15283625 -0.008990871
000340 fe 68 b3 bd 8c 19 39 3d 3e 88 04 be fc cc 03 bd
       -0.0876026 0.04519038 -0.12942597 -0.03217791
000350 e4 a9 84 bd 4b 6c 08 3d d5 ba 06 3d 78 a1 a9 bc
       -0.064777166 0.0333064 0.03289302 -0.020706877
000360 2b 83 86 bc 94 2d db bc a4 13 32 3d 3a 12 c4 bd
       -0.016419968 -0.026755132 0.043475762 -0.09573789
000370 9c 86 3a bc d9 d5 2b 3d 8e 7e 85 bd 73 42 4e bd
       -0.011384632 0.041951988 -0.06518279 -0.05035634
000380 58 a9 e6 3c bc 88 e4 bd 20 1c e0 bd 72 0a d7 bc
       0.028156921 -0.111588925 -0.109428644 -0.026250098
000390 26 ae a8 bd a5 9d 52 bd 72 16 85 bd d6 9a b4 39
       -0.08236341 -0.051419873 -0.06498422 0.00034447637
0003a0 23 5a 3f 3d 8e aa a1 bd 9c aa 9b bd 96 f0 fe bc
       0.04671682 -0.07893859 -0.076009005 -0.03112058
0003b0 e4 df c5 3c 8f 5e 4a bd 22 02 69 3d 87 e0 87 bd
       0.024154611 -0.049406584 0.0568868 -0.06634622
0003c0 50 54 e1 bc 7f bc 91 bd cc 72 93 bc a5 19 7d 3d
       -0.027506024 -0.07116031 -0.017999075 0.061792035
0003d0 a0 ff 3e bd 8f 0a 96 3d 57 27 a5 bd 90 46 bc 3b
       -0.0466305 0.07326233 -0.08064144 0.0057457164
0003e0 d3 e0 4f 3d e1 62 00 3c b4 f8 b8 bd cd 35 23 be
       0.05075152 0.007836075 -0.09031811 -0.15938492
0003f0 40 81 7f bd 8f af 0f 3d 84 aa d8 bd c2 02 00 bc
       -0.06237912 0.035079535 -0.10579398 -0.0078131575

conv2.bias f4 [32]
000000 a9 62 9b 3d 5e a3 82 bd 9e ff b5 bd 87 16 12 be
       0.07587177 -0.06378816 -0.08886646 -0.14266406
000010 a3 26 02 bd b3 72 fb bd df 5f b6 be 87 cb 17 bd
       -0.031775128 -0.122777365 -0.3562002 -0.037059333
000020 97 3e b4 bd 23 2d bf bd 0a 9c 68 be f1 f2 0c bd
       -0.088010006 -0.09334781 -0.22715774 -0.034411374
000030 cc a6 ea 3d 3e af e0 3c ea af b2 bd 59 20 fa bb
       0.11457595 0.027427312 -0.08724959 -0.0076332507
000040 44 f9 24 be 45 b6 da bd c7 8b 00 bd 9d c2 8c be
       -0.16110712 -0.106792964 -0.031383302 -0.27492228
000050 62 7f 0c bd 1e 5c d9 3d 0d 64 69 bd 07 54 d3 bd
       -0.03430117 0.10613273 -0.05698018 -0.10318761
000060 11 25 d1 bd 07 c1 7f bd df 25 df bc fb a6 af bd
       -0.10212148 -0.062439945 -0.027239738 -0.08576771
000070 ea a2 10 bd 80 0f 13 bd 97 13 d7 bd 3a 2b 48 3c
       -0.035311617 -0.035903454 -0.10501783 0.012217337

fc1.weight f4 [256, 512]
000000 4f 30 45 be 55 60 ac bd d2 8e d7 bd 17 28 91 bd
       -0.1925671 -0.084168114 -0.10525288 -0.07087725
000010 95 29 19 3d d7 86 ba ba 53 6e 83 3c cf 84 4d bd
       0.03739317 -0.0014230859 0.016043818 -0.050175484
000020 7f 62 09 3d 7f 35 ed bd 01 a1 b4 bd 68 ef 26 be
       0.0335412 -0.11582469 -0.088197716 -0.16302264
000030 b1 c5 71 3b 9e ca fc bd 6f 1c 23 be 2e b4 2e be
       0.0036891515 -0.12343334 -0.15928815 -0.1706092
000040 b7 8f e9 3c 2e 43 db bc 29 71 de bc 71 ea 4b 3c
       0.028510911 -0.026765432 -0.027153568 0.012446032
000050 3a d3 e8 ba 01 78 25 3c 93 20 e3 3c 13 7b e3 3c
       -0.0017763146 0.010099412 0.027725494 0.027768647
000060 5b 35 bd bc 04 f6 00 3d 94 db 51 3d 34 d7 61 3d
       -0.023096731 0.03148462 0.051234797 0.055136874
000070 13 de d2 3c 0f f0 22 bd 9b 63 95 3c 55 09 40 3d
       0.025740659 -0.03977972 0.018235972 0.0468839
000080 31 60 e5 bc 4f c9 2a 3d 72 de 31 bb 76 9d 8f bd
       -0.02799997 0.04169589 -0.0027140644 -0.07012455
000090 94 3a 4d 3c 7f 65 80 bc 5b 09 55 bd 80 ba 0e 3e
       0.012526173 -0.015673397 -0.052010875 0.13938332
0000a0 a7 90 bf bc 69 b1 85 be 14 09 30 3d 26 90 cd bd
       -0.023384405 -0.26111916 0.042977408 -0.1003726
0000b0 29 91 b8 bd a4 a7 4b 3d 96 6d aa 3d d7 3a 22 3d
       -0.09012062 0.04972042 0.08321683 0.039606895
0000c0 9b e2 db 3d a9 49 07 bd 06 7d dd 3d 53 e8 0c 3d
       0.10736581 -0.033029232 0.10814862 0.03440125
0000d0 e3 d2 25 bc ab d2 01 bd 21 d2 49 bc e9 9e 74 3d
       -0.01012108 -0.03169505 -0.012318165 0.05972186
0000e0 eb d7 25 bd e3 13 d7 bd 37 45 99 ba 4a 68 ff bd
       -0.04048912 -0.1050184 -0.0011693601 -0.124710634
0000f0 42 c0 6f 3d 69 14 0b bd ce d9 81 3d b5 06 fc bc
       0.05853296 -0.03395501 0.06340371 -0.030764917
000100 af 43 ed bc aa c0 4f 3d 51 6c 0a 3d cb a7 0d bd
       -0.028962938 0.05072085 0.033794705 -0.034583848
000110 04 63 1c 3b aa 86 90 bb fc 96 41 3d 9b 9c 57 3d
       0.002386273 -0.0044105845 0.04726313 0.052639585
000120 56 59 92 bc 91 78 07 3d 26 10 0a 3c 34 2f 18 3c
       -0.017864864 0.033073965 0.008426702 0.009288598
000130 af 36 e1 3c 91 3a 58 3a 0d 0b e7 bc cc ad 2c 3d
       0.027491895 0.0008248473 -0.028203512 0.042157933
000140 97 ce 0b be f7 85 c8 bc 5e 66 f3 bb b3 b6 a1 bc
       -0.13653027 -0.024477942 -0.0074279746 -0.019740438
000150 11 17 95 3c 48 61 0d be c3 75 f7 bc f1 60 9a 3d
       0.018199475 -0.13806641 -0.03020752 0.07538021
000160 09 eb 04 be 6c d5 50 be 8f a2 0d bd a3 48 12 3d
       -0.12980284 -0.20393914 -0.034578856 0.035713803
000170 a9 8e 27 be 2d aa 14 3e e7 e0 53 3c f7 f9 e0 bd
       -0.16363014 0.14518042 0.012932039 -0.10985177
000180 b8 20 93 be 10 0c ca 3b 26 53 b9 bc 4a 5f cf 3b
       -0.287359 0.0061659887 -0.022622656 0.006328498
000190 a3 ae e1 bd 7b 12 de 3c 3d cc 7d 3d 05 0a 8d bd
       -0.110196374 0.027108422 0.061962355 -0.06886677
0001a0 4f 9f ae 3d 90 53 7a 3c 36 13 d3 bd db 10 d4 bd
       0.085264795 0.015278712 -0.103063986 -0.103547774
0001b0 f4 95 9f bd 38 8c c7 bd 9e b5 bd 3c 3c cc 45 be
       -0.07792273 -0.097435415 0.02315789 -0.1931619
0001c0 64 e7 59 bc 8e b4 b3 3c 87 12 0d bd 91 42 0c 3d
       -0.013299797 0.021936681 -0.034441497 0.03424317
0001d0 5a 1f 0b bd 05 27 2d bd 18 30 21 3c 1d f8 08 3d
       -0.033965446 -0.04227354 0.009838127 0.033439744
0001e0 8c 3c 21 bd 8a 7f b7 3c fc 16 82 3c 02 f5 94 3c
       -0.039364383 0.022399683 0.0158801 0.018183235
0001f0 33 5f 2e bd 10 3e 81 3b b4 0b 22 3c 0a 0f 12 bd
       -0.042571258 0.003944166 0.009890486 -0.035658874
000200 75 be 99 3d 7a d1 aa bd ab 6e 06 3d b2 80 95 bd
       0.0750703 -0.08340736 0.032820385 -0.07299937
000210 51 a3 86 3d d9 eb 11 be 7a 77 ce bd f5 f6 5e bd
       0.06574119 -0.14250125 -0.10081382 -0.054434735
000220 24 8a cf bc 37 f5 6b be 12 fb 1c be 1c 4b c3 3c
       -0.025334425 -0.23042761 -0.1533015 0.023839526
000230 18 7b 16 3e b3 8d ac bd 1c b1 80 bc b5 00 6d 3d
       0.14695394 -0.084254645 -0.015709452 0.057862002
000240 72 aa b6 3c 10 f6 53 bb d8 5a 12 3c b0 9b 0c bd
       0.022298072 -0.003234271 0.008932792 -0.034328163
000250 00 ef 59 3a 46 84 f3 3c 5a dd dc bc 72 d1 06 bd
       0.0008313507 0.029726159 -0.026961017 -0.032914586
000260 0a ab d0 3c 75 b0 2e 3d 40 e7 1d ba c6 42 d1 bc
       0.025472183 0.04264875 -0.00060235336 -0.025544535
000270 20 b2 8c bb d6 14 9a bc b5 30 1c 3d 72 c6 fa bc
       -0.004293695 -0.018808763 0.03813239 -0.030612204
000280 94 b6 e0 bd 31 25 5f 3d 65 44 71 3d a9 ce 73 3d
       -0.10972324 0.054478828 0.058903117 0.05952326
000290 ac d0 e1 3c 62 2b 1c 3c a6 7c 54 be 11 bd 34 3d
       0.027565323 0.009531828 -0.20750675 0.04412562
0002a0 d7 76 56 3d 23 9e ba bc d7 f6 94 be d6 3c f7 bd
       0.05235943 -0.022780484 -0.29094574 -0.120721504
0002b0 d8 67 9d 3c 53 20 22 be c8 b0 65 bd 61 4f 87 bd
       0.019214556 -0.15832643 -0.056076795 -0.06606937
0002c0 56 31 15 be cc cd 9d bd 9c 1c e8 3c b6 75 00 3b
       -0.14569601 -0.07705268 0.028333955 0.0019601411
0002d0 25 73 0e bd 1d bd 1a 3c a4 29 11 3e 7b 3e e3 3c
       -0.03477778 0.009444502 0.14176041 0.027739754
0002e0 8f 92 c9 3d 4e 70 9b bd c9 5a 84 be bc c9 d6 bd
       0.09842407 -0.0758978 -0.25850514 -0.104876965
0002f0 53 76 c9 bb 21 1c 80 3d fc 71 f8 bd e1 61 00 bd
       -0.0061481385 0.06255365 -0.12131116 -0.031343345
000300 e0 75 ba bd 76 92 1a be 6c f7 a0 bb 30 36 f0 bc
       -0.09104514 -0.15094933 -0.0049123075 -0.029322714
000310 35 a1 de bc b6 37 8d bc bb ed 5d bd 80 fc 65 bd
       -0.027176479 -0.01723848 -0.054181796 -0.056149006
000320 bb 7f 15 3d 97 4f 98 3d 58 f5 16 3e 48 7c d9 bc
       0.036498766 0.074370556 0.14742029 -0.02654852
000330 bc b8 94 bd b7 3b df 3d 42 5f 36 3e 3a b6 5f bb
       -0.07261798 0.109000616 0.17809775 -0.0034135715
000340 fb 48 c2 3d 6c 02 e0 3d 57 81 e3 3c 8a bf b7 bb
       0.09486576 0.10937962 0.027771635 -0.00560755
000350 81 ec bf bc 3b ad cd bc 71 92 29 be 5c f6 ee bc
       -0.023428204 -0.025107017 -0.16559769 -0.029170208
000360 f2 9a 01 3d d4 3d 84 3d fc 1d b6 bd cd c6 19 be
       0.031641908 0.06457105 -0.08892438 -0.15017243
000370 93 d5 e2 bd cf a5 14 be 23 d8 c6 bd 30 9c 7d be
       -0.11075892 -0.14516376 -0.097091936 -0.24766612
000380 d2 b6 e2 3c 91 c0 5c bc ca 4f 0d 3c 7b 9d 88 3d
       0.027675066 -0.013473646 0.00862498 0.06670662
000390 13 c1 cc 3c a2 60 9e bc 72 ed 52 ba ae dd f8 3c
       0.024994409 -0.019333187 -0.00080462464 0.030379143
0003a0 d3 a8 96 bc 34 da 6e 3d 92 bc a6 3d e1 9b 04 bb
       -0.018391049 0.058313563 0.08141436 -0.0020234513
0003b0 a6 32 61 3d 93 10 38 3c c9 e9 97 3d 78 b5 7b 3d
       0.054979943 0.01123442 0.07417638 0.06145236
0003c0 46 e1 46 bc 0c d7 19 3b 76 73 b0 3c a1 60 36 3d
       -0.01213867 0.0023474125 0.021539431 0.044525746
0003d0 27 06 bf bc 28 bb fa bb 9a b0 74 3d cd 54 02 3c
       -0.023318363 -0.0076517053 0.059738733 0.007954788
0003e0 56 7a 4e bd 39 48 01 bb 54 de 99 3d 39 88 4b 3c
       -0.050409637 -0.0019726886 0.07513109 0.012422615
0003f0 1a fc df 3b 6f bf 06 3d af 90 61 bc cb d6 df bc
       0.006835473 0.03289741 -0.013767405 -0.027324101

fc1.bias f4 [256]
000000 4a 12 f5 bc 2d 04 d7 3c 6d e8 1d be d8 4a 1e be
       -0.029915947 0.026247108 -0.15420695 -0.15458238
000010 19 40 37 be f9 b3 c4 bd 48 b7 09 3e 08 6a 50 bd
       -0.17895545 -0.096046396 0.13448822 -0.05088237
000020 93 1d 5e 3d 8d 1f a4 bc 3e 9d 0e 3d 8d 92 fd bc
       0.054227423 -0.020034576 0.034817927 -0.03095367
000030 f9 4c b9 bb 17 7d a3 bc 2b c6 28 be 99 4d 27 be
       -0.005654928 -0.019957108 -0.16481845 -0.16338195
000040 10 b3 4b be 19 bf a2 bd ca 77 c5 3d 50 40 cb bd
       -0.19892526 -0.07946605 0.096419886 -0.09924376
000050 71 a3 82 3c 7f d9 48 bd 22 cf 00 be b1 12 20 3e
       0.015947076 -0.049035545 -0.12579015 0.1563213
000060 05 13 0e be 87 44 61 3d cd fb d7 bd 40 55 07 3e
       -0.13874443 0.054996993 -0.10546074 0.13216114
000070 55 0d fa bc 35 11 17 3e d0 bc 80 bd 70 c4 82 3d
       -0.030523935 0.14752658 -0.06286013 0.06385124
000080 a9 09 41 be 40 6a 16 bd fd 5c 48 3d 8d 3f 21 be
       -0.18851341 -0.03672242 0.048916806 -0.15746899
000090 e0 76 24 bd 26 6d 2a bd de 88 8a bd fb ce 93 bc
       -0.04015243 -0.041608 -0.067643866 -0.018043032
0000a0 b2 1e 7a 3d 40 8f 2a bd 42 79 ac bc 46 b6 14 bd
       0.06106443 -0.04164052 -0.021053914 -0.036306642
0000b0 67 6d 14 bd 8f e8 18 be bc 70 45 be 1f f8 c5 bc
       -0.036237147 -0.14932464 -0.19281286 -0.024166165
0000c0 5b a2 69 3c 9e 76 c0 bd 36 96 96 ba 2e da ad 3c
       0.0142599 -0.093976244 -0.0011488858 0.0212222
0000d0 3c cf b6 ba ae 7d 41 bc d7 f4 0d 3d 6e 31 87 be
       -0.0013947259 -0.0118097495 0.034657326 -0.264049
0000e0 67 5f d6 bd 1f 11 03 bd 2a 3a 20 3d 53 6e 12 be
       -0.10467415 -0.03199875 0.03911797 -0.14299898
0000f0 34 c9 8b bd e4 b1 f9 bc 6a ac 6a be 18 75 ba bc
       -0.06825486 -0.030480333 -0.22917333 -0.022760913
000100 be 2d 5b be 18 73 35 bd 12 b3 b1 bd 68 04 0b be
       -0.21404168 -0.044299215 -0.08676733 -0.135759
000110 47 91 59 bd 42 23 41 be 52 56 ba 3a 44 02 48 be
       -0.053117063 -0.18861106 0.0014216399 -0.19532114
000120 1a 91 9d bc af e8 da 3d 9b 55 5f bc 7e 00 35 be
       -0.019234229 0.10688912 -0.01363125 -0.17675969
000130 de 5f b4 3a 96 68 fe bc e2 8c 12 3d 0c 7b 28 bd
       0.0013761481 -0.03105573 0.035778888 -0.04113297
000140 20 46 d6 3d 33 8f 14 3d 99 3c c0 bd 54 9f 91 bd
       0.10462594 0.036269378 -0.09386558 -0.071104676
000150 cb 3c 4d bd bc fd 6a bc 93 87 18 3e 00 9a 3c 3c
       -0.050106805 -0.014342722 0.14895467 0.011511326
000160 81 32 51 3c f8 4f 2a 3d ba 5c 33 be c0 67 0c bd
       0.012768389 0.04158017 -0.17515841 -0.03427863
000170 ff da 8d bd d0 e5 69 bd 46 ca ec bc 8f 30 c8 bc
       -0.06926536 -0.057103932 -0.028905045 -0.024437217
000180 e8 ed 3e be 51 39 24 bc 94 ee 01 be ee fe 29 be
       -0.18645442 -0.010023431 -0.12688667 -0.16601154
000190 6d ee da bd 01 7d 95 bd 32 3f c3 3c f2 fe 8b bd
       -0.10690007 -0.07299233 0.023833845 -0.06835736
0001a0 ac 12 3d bc d7 62 c3 3d 43 e7 b5 bc e4 29 12 be
       -0.011540096 0.095403366 -0.022205 -0.14273793
0001b0 69 51 d8 3d 81 6f 5c bd ed 65 b2 bb 3f a5 27 be
       0.10562403 -0.053817276 -0.0054442794 -0.1637163
0001c0 6c 5c e2 bd 36 65 25 be b7 7e 51 bd 25 f2 b9 3b
       -0.11052784 -0.1615189 -0.051146235 0.005674618
0001d0 ce 28 31 bd f1 82 df bd 5b b8 ef 3c 0c 58 00 3e
       -0.043251805 -0.10913647 0.029262712 0.12533587
0001e0 78 dc ac bd 0b 84 84 bd d7 2f 73 bd 72 72 11 be
       -0.084404886 -0.06470498 -0.059371796 -0.14203814
0001f0 14 50 c4 bb 46 eb cc bd 79 5f dd 3c c1 3e f2 bd
       -0.0059909914 -0.10005812 0.027023064 -0.118283756
000200 f7 1c 1a 3e 12 51 79 3c c8 d8 04 3e 39 47 33 3c
       0.15050112 0.015217083 0.1297332 0.010942274
000210 b1 79 31 3e 8c d7 03 be 55 87 14 be 1e 36 70 bc
       0.17331578 -0.12875193 -0.1450475 -0.01466134
000220 f3 90 b9 bd dc 77 a8 bd c8 b1 a2 3d 7f 61 87 bd
       -0.0906085 -0.08225986 0.07944065 -0.06610393
000230 7f df e6 bc 99 f7 93 bd 80 5c 56 bd 42 68 71 3d
       -0.028182743 -0.0722496 -0.05233431 0.05893732
000240 08 6d 77 3d 49 d3 38 3e 87 7e 9a bc 4d c5 05 be
       0.060406715 0.18049349 -0.018859161 -0.13063546
000250 c0 be 8d 3d 8c e3 84 3c 3d 1e 8f be 55 6e f5 3c
       0.06921148 0.016221784 -0.27952757 0.029959837
000260 3d 23 03 bd 72 a0 23 bd 3c 07 96 3d 49 63 15 be
       -0.032016028 -0.039947934 0.073255986 -0.14588656
000270 5f d8 83 bd 27 3b d5 3c 8c 38 0b 3e 67 b8 89 bd
       -0.06437754 0.026029183 0.1359579 -0.06724625
000280 81 d5 89 bd 9b 6f 4b 3d b7 df 0a be 20 d8 a5 bd
       -0.06730176 0.049666982 -0.13561903 -0.08097863
000290 bc 64 b1 3d 34 28 36 bd 5c cc 98 3c c5 22 e8 3d
       0.08661792 -0.044471934 0.018652134 0.11334757
0002a0 f5 53 1c bd b0 36 50 bd 81 57 2a be b6 89 64 bc
       -0.038166005 -0.050833404 -0.16634943 -0.0139488485
0002b0 ee 91 91 bc 58 fd 12 be 0c e4 0a 3e 02 ce b5 3c
       -0.01776978 -0.14354455 0.13563555 0.022192959
0002c0 65 6a 49 bd d9 6e 3b be ef 44 21 3c f4 f7 5a bd
       -0.04917373 -0.18304004 0.009843095 -0.053459123
0002d0 4a 60 27 3e 79 1f 44 be 98 55 c2 3c 86 d7 c8 bd
       0.16345325 -0.19152631 0.023722455 -0.09806733
0002e0 0f 26 ad 3b bc 70 37 bd 92 18 55 be 78 80 77 3a
       0.005284078 -0.044785246 -0.20810154 0.00094414456
0002f0 f8 1f 21 3e 62 be 3d be f6 b6 86 3d b0 05 c0 bc
       0.15734851 -0.18529657 0.06577866 -0.023440212
000300 ef 42 01 be 0a ad 84 bd a2 85 2c be 27 1e 70 3e
       -0.1262319 -0.06478317 -0.16847852 0.23449002
000310 d7 ab e2 3c 21 44 15 bd 99 9f b2 bd 46 bc b8 3d
       0.02766983 -0.036441926 -0.08721847 0.09020285
000320 92 8f 01 be c5 15 1f be 6a 70 1c be 29 2f 36 bd
       -0.12652424 -0.15535648 -0.15277258 -0.04447857
000330 39 93 25 bd bc 0f 09 3d 0f 01 f4 3c 56 09 bd bc
       -0.040423606 0.03346227 0.029785661 -0.02307574
000340 60 17 b9 bc ae 90 05 be f2 e1 ee bb c1 2e cd 3d
       -0.022594154 -0.13043472 -0.0072901184 0.10018683
000350 3b 96 8b bc 75 fb 4f be 01 48 4e bd e4 fa af 3d
       -0.017039409 -0.20310767 -0.050361637 0.085927755
000360 db d0 98 bd fc dd 41 bd 2b af 1c 3e 86 42 44 be
       -0.07461711 -0.04733084 0.15301196 -0.19166002
000370 1e 44 02 be 14 11 6e be cb 31 ff 3c a9 f9 16 be
       -0.12721297 -0.23248702 0.031151673 -0.14743675
000380 6a a7 e0 3d 5a c1 92 bd 01 15 b5 bc b4 78 01 be
       0.10969432 -0.07165785 -0.022104742 -0.12643701
000390 70 e4 d6 bc 94 34 b1 bc 61 ba 3d 3e 8b 5c 0e be
       -0.026231974 -0.021631517 0.18528129 -0.1390249
0003a0 09 cd 9b 3c 7a ec 0a be e8 f2 87 bd 25 77 1e be
       0.019018667 -0.13566771 -0.066381276 -0.15475138
0003b0 f7 75 b0 3d 5b ae 5e bd fc 77 16 bc 8c 04 a5 bd
       0.0861625 -0.054365497 -0.00918388 -0.08057508
0003c0 c5 3d 30 be 5b 6f c3 3d 2f c3 29 bd bd 2d 00 bd
       -0.17211063 0.09542724 -0.041445907 -0.03129362
0003d0 c9 41 2b bd bd b5 54 3b d0 cc 16 be 8d db 74 3b
       -0.041810784 0.0032456957 -0.14726567 0.0037362308
0003e0 88 2c a6 bc ff 31 44 3d bc f6 42 be 52 55 e6 bc
       -0.020284906 0.047899242 -0.19039434 -0.028116856
0003f0 83 5e 00 be 09 14 33 3d f9 02 64 be 21 c0 4d be
       -0.12536053 0.04372028 -0.22266759 -0.20092823

fc2.weight f4 [2, 256]
000000 ff 28 37 bc 81 09 7c 3d 67 66 ee bd f8 90 8b be
       -0.011179208 0.0615325 -0.116406254 -0.2725904
000010 5a ff 75 bb 19 22 8e bd 28 a8 5b 3f c0 5d ee 3b
       -0.0037536235 -0.06940097 0.8580346 0.0072743595
000020 c7 92 93 3e 69 23 e2 bb 27 dd 5f 3d a1 ca a0 3c
       0.2882292 -0.006901194 0.054654267 0.019627871
000030 53 ce 55 3e d3 a0 5a b9 2a cc c1 bd dd cd 42 be
       0.20879488 -0.00020850012 -0.09462769 -0.19023843
000040 97 a7 09 be 20 b3 9b bc bb fe 56 3e 9e 85 01 bf
       -0.13442837 -0.019006312 0.2099561 -0.5059451
000050 02 85 b8 bc 4c b4 4c bb 4a 09 20 be d1 20 04 3f
       -0.02252436 -0.0031235395 -0.15628543 0.51612574
000060 e1 7b af be fc 63 8a 3f e0 e4 8b bd b1 4c 5c 3f
       -0.342742 1.0811763 -0.06830764 0.8605452
000070 55 c0 eb 3c 60 ee ab 3e d5 86 5c bd 2f 1d 03 3f
       0.028778234 0.33580303 -0.053839523 0.51216406
000080 55 a7 a4 be 09 25 ba bb f6 07 0a 3f 83 7e 93 bd
       -0.32158914 -0.0056806845 0.539184 -0.072018646
000090 80 d5 d1 3c f4 2b 50 3d 6d 2a 99 3c 5b 68 b0 3c
       0.0256145 0.050823167 0.018696988 0.021534136
0000a0 be 2b b7 3e 39 bb 2c 3c da 5f cc 3c 56 b7 43 bd
       0.3577556 0.010542684 0.02494805 -0.047782265
0000b0 5a 9b ec 3c cf f8 81 3c 19 ed 0f be 5b 83 cb 3c
       0.028882671 0.015865711 -0.1405529 0.024842909
0000c0 ec 3e 05 3d b0 91 3a bc 67 61 02 3d cf 2c f4 3e
       0.03253071 -0.011387274 0.03183117 0.47690436
0000d0 b5 14 b7 3a 6c 5f 98 be 8e ba c6 3e de cb 5b be
       0.0013967963 -0.297603 0.38814205 -0.21464488
0000e0 a0 66 29 bd 54 df 00 3d 2f 11 eb be 6f a4 17 3c
       -0.041357636 0.031462982 -0.45911548 0.009255513
0000f0 98 ab cf bc 21 62 15 3d ca 5e 53 3b 7a 5c 39 3d
       -0.025350377 0.036470536 0.0032252544 0.04525421
000100 67 1c 0d 3d f1 75 5b 3d f6 1d 70 be 79 26 4f ba
       0.034450915 0.053579275 -0.23448929 -0.0007902156
000110 fe 15 4c 3f d4 9c 15 3d e6 ae a3 3a bf f8 88 bd
       0.7972106 0.036526516 0.0012488037 -0.066880696
000120 ec 0d a8 bb 00 87 c4 3e cb dd 5a 3d b7 bd d1 bd
       -0.0051286127 0.38384247 0.053434175 -0.10241263
000130 b1 75 c0 3d c2 d4 55 3f c3 2e e7 3e 60 2f d2 3c
       0.09397448 0.8352777 0.45152864 0.025657356
000140 ab e5 49 3e 1a 9d 6a 3f 76 87 7c bc 6c 67 8b be
       0.19716518 0.9164597 -0.015413156 -0.27227342
000150 9e e3 da bc 9c d7 04 bd da f3 8c 3e 4a db 27 3d
       -0.026719864 -0.032432184 0.27529794 0.040980615
000160 37 39 2c bc 08 9e 36 3f 3b f9 71 3c ce cc 5d 3d
       -0.010511688 0.71334887 0.014768894 0.054150395
000170 b2 03 7b 3c bf 22 e7 3d 64 e5 38 3d 32 c4 91 3e
       0.015320705 0.11285924 0.04514064 0.28469998
000180 dc d2 47 3d c6 d4 8e 3e f3 e5 e2 3b a5 82 97 be
       0.048785076 0.27896708 0.0069243847 -0.2959186
000190 11 b9 00 bf cf 28 c2 bd d3 ce e3 3b 64 cb 63 be
       -0.5028239 -0.0948044 0.0069521456 -0.22245556
0001a0 f6 92 82 bd c5 34 7c 3f f2 e4 81 bd f3 3c a0 be
       -0.06375687 0.9851802 -0.06342496 -0.312965
0001b0 88 6e d8 3e 38 07 4a 3d 1e ad f1 3e 05 10 46 bd
       0.4227183 0.04932329 0.4720239 -0.04835512
0001c0 24 d3 1f bf 6f 8c 7a bc f6 7b 15 bd 6a 8c 60 bc
       -0.6243155 -0.015292271 -0.03649517 -0.013705352
0001d0 81 77 03 3b 40 00 d7 be 48 f4 26 3d 42 3e 04 3f
       0.0020060244 -0.41992378 0.04076031 0.516575
0001e0 85 5f a7 be 49 d1 78 bd cb 4d 40 3d 5b 44 c6 be
       -0.32690063 -0.060746465 0.04694919 -0.38724026
0001f0 61 6a 05 3c c8 f8 fe be 30 f1 c1 bc dd 13 ce 3b
       0.0081430385 -0.4979918 -0.023674577 0.006288989
000200 ab b7 ad 3e a5 71 14 3d d0 c8 12 3e d7 e5 01 3d
       0.3392919 0.036241192 0.14334416 0.031713333
000210 c0 c3 72 3e c1 79 49 bf f7 c9 52 bd 6f 4a 26 3f
       0.23707485 -0.78701407 -0.05146214 0.64957327
000220 f2 b1 53 bc 9d 7d 18 bd 11 be 31 3e 70 9b 5f bf
       -0.012920843 -0.03722917 0.17357661 -0.87346554
000230 22 71 06 bf c8 1f 64 3c 79 ba 97 3a 12 4a b1 3e
       -0.52516377 0.013923593 0.0011575959 0.34626824
000240 03 26 d6 3e a3 5a a3 3e 31 95 eb be e4 91 8e be
       0.41825876 0.31905088 -0.46012262 -0.2784568
000250 c1 37 cc 3e 3e 27 8d bc ef 2f f5 bd 63 2b 5d 3e
       0.39886287 -0.017230626 -0.11972033 0.21598582
000260 aa a8 42 3d 4c 8c a2 be 1c 72 d3 3d b2 e4 51 3c
       0.04752413 -0.31747663 0.10324499 0.012810873
000270 fc 07 54 bc 0f 05 9c 3e c0 88 bb 3e af 1a da bc
       -0.012941357 0.3047261 0.3662777 -0.026624052
000280 6a e1 3c bd 98 3d 0a 3f 8a 4d 93 3c cf 6b 3c bf
       -0.04611341 0.54000235 0.01798131 -0.73602
000290 50 3b 1a 3f 24 b2 6d bd 98 22 c1 3c 11 a2 1f 3e
       0.60246754 -0.058031216 0.023576066 0.15589167
0002a0 4e ee 18 bd 15 3c 5d bd cd 2a e4 ba 8b e2 0a 3d
       -0.03733664 -0.054012377 -0.0017407775 0.033907454
0002b0 76 4d c2 be d1 24 c1 be e0 46 2e 3e 75 c7 be bb
       -0.37949723 -0.377234 0.17019224 -0.005822117
0002c0 be b0 b6 3c 93 04 26 be 03 1f 1e bc 50 79 0a bd
       0.022301074 -0.16212682 -0.009650948 -0.0338071
0002d0 17 b6 c3 3d 5c e9 80 be 08 ff c7 be 16 4f 56 bc
       0.09556215 -0.2517804 -0.3906176 -0.013080379
0002e0 6a ab 08 bd b2 51 52 be 37 58 ae bd 26 20 20 3d
       -0.0333666 -0.20538977 -0.085129194 0.03909316
0002f0 40 c1 6c 3f f7 57 28 3d b4 d7 40 3e be 47 12 bd
       0.92482376 0.041099515 0.18832284 -0.03571295
000300 97 7f cb be 90 a1 1b 3d 7b 4d 81 be fd 07 5d 3e
       -0.3974578 0.037995875 -0.25254425 0.21585079
000310 c8 4b 3f 3e 1d 91 36 bd ce 90 79 bb 36 e4 88 3d
       0.18681252 -0.044571985 -0.0038080695 0.06684153
000320 7f 1a 22 be fa 99 98 bd 28 e1 13 be 63 e2 6f b9
       -0.1583042 -0.07451244 -0.14441359 -0.00022877152
000330 f3 fb a7 3c f8 5d 1b 3c 61 ce 34 3c fa 2f 14 bd
       0.020505881 0.009482853 0.011035533 -0.036178567
000340 20 1d 14 3d b0 07 f8 3b 8e b4 70 3d ec cc 0f 3f
       0.03616059 0.007569276 0.05876594 0.5617206
000350 26 5f 8f bd 76 12 98 be e5 84 2d 3c 09 d9 ec 3e
       -0.0700057 -0.29701585 0.010590767 0.46259335
000360 ee 8d 40 be 7e fd a8 be f4 0a 3c 3f 26 93 3b bf
       -0.18804142 -0.330059 0.73454213 -0.73271406
000370 db 3b 7c be e1 16 de be 7a 67 48 3e 7c 6b 4d 3d
       -0.24632208 -0.4337683 0.19570723 0.050151333
000380 db 19 00 3f 40 e7 ae 3b 34 ba 08 3d b9 30 6c be
       0.5003945 0.0053376257 0.033380702 -0.23065461
000390 f1 73 59 3c 10 8b 43 bb d7 5f 2c 3f 61 a0 0d bf
       0.0132722715 -0.0029837526 0.6733374 -0.55322844
0003a0 34 fa e2 3c 5e 74 bb bd d2 44 8d be 5d 82 08 3d
       0.027707197 -0.09153055 -0.27591568 0.03332745
0003b0 3e 5b 95 3d db 22 6c 3d a2 26 fc bc fd e1 32 bc
       0.07292794 0.05765043 -0.03078014 -0.010918138
0003c0 21 a6 5a be 06 45 78 3f 8b 10 b5 3c fe c5 bb bc
       -0.21352436 0.9698032 0.022102615 -0.022921558
0003d0 ef b4 a5 be 7e 5f 1c 3c 19 5e ba be 6a 83 f9 3c
       -0.32364604 0.0095442515 -0.36399916 0.03045817
0003e0 5d 2b 3e 3d 82 f1 ec 3d 2e ea b1 be f2 72 d4 bb
       0.046428073 0.115695015 -0.34748977 -0.006483429
0003f0 f9 04 b8 bc 32 ee ec 3d 12 39 a7 3b 20 d4 f2 bd
       -0.022463309 0.1156887 0.005103239 -0.11856866

fc2.bias f4 [2]
000000 f8 07 62 3e 1c 6d 82 be
       0.22073352 -0.2547387
