Saved Models/model1.pt (torch, 549487 bytes, 8 tensors)

conv1.weight f4 [16, 1, 3, 3]
0.2341976 -0.05321811 -0.30599782 -0.5818881 -0.2949476 0.59887534 -0.5545114 0.22767444
0.6040102 0.47373143 0.45516875 0.32909885 -0.15593578 0.15344355 -0.4930745 -0.5435837
-0.6038815 -0.6735208 -0.2608212 -0.2736696 0.024315685 0.13099083 0.04219249 -0.20742218
0.14702705 -0.2580464 0.09666768 0.18669215 0.29157922 -0.24694817 0.029959202 -0.08527589
-0.017317504 -0.22724812 -0.07662168 0.11202976 -0.03395112 -0.17086342 -0.38656452 0.41915655
-0.018268311 0.38061908 0.25733668 0.3530668 0.22665556 -0.053426176 0.0067982622 -0.11710649
0.13083209 0.04050112 0.19771092 -0.023394536 -0.10353132 -0.0892708 -0.14815307 0.17661837
0.03315657 -0.108645745 0.4114673 0.30740017 0.21250223 0.32488713 0.038444366 -0.18437095
0.2068801 -0.074149154 -0.2158239 -0.38173184 0.188252 -0.4403216 -0.079683244 0.017501298
0.6763336 0.15407021 -0.6874605 0.37871248 -0.08500118 -0.8607681 0.21540695 -0.06742929
-0.08927867 -0.23558527 0.40056014 0.64332014 -0.78757495 -0.07056417 0.29256764 -0.44510636
-0.07151699 -0.07749744 -0.05114397 -0.17896825 -0.04395369 -0.0539867 -0.07423628 0.097731024
-0.0045716306 0.040954057 0.014577954 -0.14306058 -0.15788825 -0.47991812 0.15847771 0.29716894
-0.2078164 0.012785082 0.14867713 -0.1594936 0.2892604 0.3243907 0.13201578 -0.18926907
0.045296792 0.19694981 0.11753699 -0.15283236 -0.15406635 -0.06131482 -0.14015639 -0.30135712
-0.03828016 0.27846614 -0.10679416 -0.06489077 0.21087417 -0.11723229 0.2706309 -0.55416775
-0.47290352 0.12567203 -0.40111336 -0.42011178 0.3236465 0.7137356 0.33092368 -0.09373609
0.0018418841 0.2641734 0.28196737 0.50905037 0.36488676 0.11512196 -0.2632462 -0.16504878
00000000: 7fd1 6f3e 3cfb 59bd bfab 9cbe 9ef6 14bf
00000010: 5f03 97be e54f 193f 76f4 0dbf 7d23 693e
00000020: 6aa0 1a3f ed8c f23e e10b e93e a57f a83e
00000030: a1ad 1fbe 4e20 1d3e 4374 fcbe 4d28 0bbf
00000040: fa97 1abf dc6b 2cbf 5b8a 85be 6c1e 8cbe
00000050: b031 c73c 7622 063e 08d2 2c3d 7b66 54be
00000060: 428e 163e a81e 84be b4f9 c53d 3a2c 3f3e
00000070: df49 953e fbdf 7cbe 006d f53c 20a5 aebd
00000080: 70dd 8dbc bbb3 68be d4eb 9cbd dc6f e53d
00000090: 5410 0bbd d2f6 2ebe c9eb c5be b09b d63e
000000a0: 6da7 95bc 81e0 c23e a2c1 833e 2cc5 b43e
000000b0: 6518 683e 68d5 5abd f5c3 de3b 87d5 efbd
000000c0: d9f8 053e 81e4 253d bb74 4a3e e6a5 bfbc
000000d0: 3b08 d4bd 9cd3 b6bd 70b5 17be 72db 343e
000000e0: 2fcf 073d a981 debd d8ab d23e 8e63 9d3e
000000f0: 2f9a 593e 9b57 a63e d777 1d3d bdcb 3cbe
00000100: 60d8 533e 83db 97bd f100 5dbe 5b72 c3be
00000110: 22c5 403e d571 e1be f830 a3bd e25e 8f3c
00000120: 3324 2d3f 95c4 1d3e 69fd 2fbf 9ae6 c13e
00000130: 1915 aebd 4c5b 5cbf a493 5c3e 5e18 8abd
00000140: bcd7 b6bd 443d 71be 3816 cd3e a1b0 243f
00000150: 839e 49bf f383 90bd 6dcb 953e fbe4 e3be
00000160: 8077 92bd fab6 9ebd 577c 51bd 7443 37be
00000170: c908 34bd 2821 5dbd 3109 98bd 3427 c83d
00000180: 9ecd 95bb 71bf 273d 5fd8 6e3c 797e 12be
00000190: 75ad 21be d4b7 f5be fb47 223e 8726 983e
000001a0: d3cd 54be 8578 513c d13e 183e 4a52 23be
000001b0: f019 943e 8a16 a63e 252f 073e c0cf 41be
000001c0: 2189 393d 36ad 493e 3cb7 f03d 1680 1cbe
000001d0: 92c3 1dbe 4025 7bbd 2885 0fbe 7b4b 9abe
000001e0: a8cb 1cbd 1d93 8e3e e6b6 dabd 74e5 84bd
000001f0: 66ef 573e 7c17 f0bd 2290 8a3e f0dd 0dbf
00000200: 6920 f2be 2bb0 003e bb5e cdbe e418 d7be
00000210: feb4 a53e 60b7 363f d46e a93e b5f8 bfbd
00000220: 606b f13a bc41 873e 075e 903e 2051 023f
00000230: 70d2 ba3e 10c5 eb3d 35c8 86be 8c02 29be

conv1.bias f4 [16]
0.054771878 0.34082356 -0.27540088 -0.26739234 -0.28941667 -0.12187599 -0.2588558 0.33297443
0.1690138 0.16267426 -0.0512236 -0.11006301 -0.14540362 -0.13283464 0.032739498 -0.21125337
00000000: 7a58 603d 6d80 ae3e 5801 8dbe a6e7 88be
00000010: 6c2e 94be 1e9a f9bd bf88 84be a07b aa3e
00000020: f411 2d3e 1594 263e d6cf 51bd b768 e1bd
00000030: b0e4 14be ce05 08be da19 063d ce52 58be

conv2.weight f4 [32, 16, 3, 3]
0.058551185 -0.029980548 0.031074224 0.037245262 -0.09186063 -0.011451842 -0.082154445 -0.040660907
0.040055804 -0.07837416 0.053868387 0.002193732 -0.01566985 -0.04729217 -0.059316386 0.06034693
-0.06128503 -0.006088413 -0.018680327 -0.018206 0.0075794384 0.006504439 0.0729387 0.026126988
-0.04363836 0.010470919 -0.055792987 -0.075182974 0.061587088 0.07096604 -0.007861555 0.07087707
-0.02601257 -0.04503935 0.032770373 0.017998882 -0.056555517 0.024661021 0.028998079 -0.014431311
-0.057692863 -0.046874467 0.014275441 0.022022378 0.031109858 0.033338733 0.00034721746 -0.037862863
0.07203566 0.0013340667 -0.0077090333 -0.007050461 -0.020440763 -0.032694984 -0.0919915 -0.100208364
-0.011887928 0.029264199 -0.024268072 -0.037992027 0.06320543 -0.023363743 -0.03058469 -0.027951857
-0.008335205 0.05474933 -0.05801029 -0.07888976 -0.049237713 0.021101668 0.039513007 0.011040489
0.0050225276 -0.07431003 -0.038120393 -0.040297337 -0.06293335 0.010623818 -0.007530504 -0.04793354
-0.006155528 -0.03203079 -0.07072355 -0.020821882 -0.04316674 0.06834508 -0.045872223 0.045676533
-0.037740204 0.027405 0.006450423 -0.06927357 -0.039139394 0.017617965 -0.0868167 -0.049781423
-0.008332361 0.07197723 -0.046542574 -0.09335581 -0.043434374 -0.09064481 -0.028306454 -0.096574455
-0.003404489 -0.05411562 -0.057132438 0.041655373 0.033530865 -0.063850254 0.05495368 -0.090945944
-0.08293675 -0.080171995 -0.05022332 -0.0615489 0.02929534 0.027887322 0.05007697 0.0398342
-0.013423793 0.009246677 0.0011376813 0.06853358 -0.020893048 -0.0035273135 -0.06611243 0.05855067
-0.041984662 0.030561201 -0.077204265 0.00671854 -0.008640043 0.010831428 -0.07478298 0.060098723
-0.03653134 0.020001248 0.0003765009 -0.050348233 -0.04580733 0.034966238 -0.008889356 -0.09402321
0.025716085 0.0031559356 0.0023609868 0.03339435 -0.047998838 -0.031608187 0.00616268 -0.095488586
-0.058213044 -0.03995826 -0.10203211 -0.05433239 -0.03968431 0.013732947 -0.0579333 0.0041348967
-0.004774384 -0.099715255 0.07714347 0.057389326 -0.02720552 -0.08045747 0.07309776 0.031709574
0.036349118 0.061026208 -0.039307207 0.04093156 0.00905019 -0.00043254346 0.009069353 0.080987655
0.012203924 -0.015462764 -0.037467968 0.050110348 0.015128234 -0.08911193 -0.06253632 -0.05263937
0.03573373 -0.0037524477 -0.08469754 -0.07251383 0.01251059 0.039726548 -0.10865461 -0.0130097065
-0.03171467 -0.04222218 0.043506633 -0.041033443 -0.02193298 -0.07851153 -0.055395585 -0.100527026
0.030684073 0.013965233 -0.11109123 0.017311921 0.03863671 -0.07797756 0.013636552 -0.028858542
0.019147974 0.041725885 -0.021812344 -0.04959365 0.031312153 -0.08001556 -0.03377189 -0.053667907
-0.087465845 -0.0659462 -0.06602522 -0.012854501 -0.023188237 0.016574556 -0.007688927 0.021549646
-0.06023829 -0.052682042 -0.068678044 -0.015947428 -0.01666952 -0.042203926 -0.09362719 -0.008355543
0.01756231 -0.048525084 -0.11274189 0.0013836762 -0.05898935 -0.060806524 -0.09470892 -0.06768938
-0.10341672 -0.079306886 -0.09115958 0.022574728 -0.01528919 -0.10255473 0.005008374 -0.073675856
-0.04659181 -0.013225483 -0.096486405 -0.020601768 -0.059110586 -0.062363617 0.04094823 0.038214453
00000000: 5ed3 6f3d c499 f5bc 5f8f fe3c 7d8e 183d
00000010: 6d21 bcbd 82a0 3bbc 9740 a8bd 0d8c 26bd
00000020: 8e11 243d a282 a0bd 19a5 5c3d b7c4 0f3b
00000030: 0f5e 80bc 6fb5 41bd bdf5 72bd 582e 773d
00000040: 0306 7bbd 4f81 c7bb 7c07 99bc c024 95bc
00000050: f05c f83b 3023 d53b e360 953d 4408 d63c
00000060: 23be 32bd 388e 2b3c 3087 64bd 88f9 99bd
00000070: be42 7c3d a556 913d c0cd 00bc ff27 913d
00000080: 5018 d5bc 2e7b 38bd 3a3a 063d 6472 933c
00000090: c2a6 67bd e905 ca3c 618d ed3c 4e71 6cbc
000000a0: 5a4f 6cbd 71ff 3fbd 8ae3 693c 4668 b43c
000000b0: 1ada fe3c 328e 083d bd0a b639 1716 1bbd
000000c0: 6f87 933d dadb ae3a 0f9c fcbb 8e07 e7bb
000000d0: 6373 a7bc 2deb 05bd 0a66 bcbd 0b3a cdbd
000000e0: 95c5 42bc 79bb ef3c d6cd c6bc 879d 1bbd
000000f0: d971 813d 5265 bfbc be8c fabc 4bfb e4bc
00000100: 6290 08bc d540 603d 339c 6dbd f490 a1bd
00000110: 7cad 49bd 68dd ac3c 64d8 213d 2be3 343c
00000120: 0494 a43b db2f 98bd 2124 1cbd d20e 25bd
00000130: 33e3 80bd 860f 2e3c 72c2 f6bb f655 44bd
00000140: 50b4 c9bb b832 03bd 82d7 90bd a792 aabc
00000150: 9ccf 30bd 81f8 8b3d 83e4 3bbd 5117 3b3d
00000160: 7995 1abd 7380 e03c 125e d33b 4ddf 8dbd
00000170: a150 20bd 8d53 903c f4cc b1bd 9be7 4bbd
00000180: 7484 08bc cc68 933d 6da3 3ebd 5531 bfbd
00000190: 3ee8 31bd fca3 b9bd f0e2 e7bc d4c8 c5bd
000001a0: d91d 5fbb 57a8 5dbd b403 6abd d39e 2a3d
000001b0: a957 093d ecc3 82bd 1c17 613d de41 babd
000001c0: beda a9bd 3731 a4bd f8b6 4dbd b31a 7cbd
000001d0: c8fc ef3c f473 e43c 821d 4d3d 3029 233d
000001e0: 78ef 5bbc 607f 173c 401e 953a 555b 8c3d
000001f0: e627 abbc 802a 67bb f465 87bd d4d2 6f3d
00000200: 1cf8 2bbd 7c5b fa3c 451d 9ebd 3327 dc3b
00000210: f88e 0dbc 4d76 313c d227 99bd 142a 763d
00000220: e3a1 15bd a8d9 a33c 1865 c539 f339 4ebd
00000230: 78a0 3bbd c238 0f3d a9a4 11bc 3e8f c0bd
00000240: 8aaa d23c d0d3 4e3b c9ba 1a3b 84c8 083d
00000250: 6e9a 44bd 9677 01bd 4ff0 c93b 858f c3bd
00000260: cd70 6ebd 46ab 23bd 36f6 d0bd a48b 5ebd
00000270: 048c 22bd 2800 613c 784b 6dbd 077e 873b
00000280: 7072 9cbb 8337 ccbd 65fd 9d3d 1211 6b3d
00000290: 1cde debc e3c6 a4bd 47b4 953d e6e1 013d
000002a0: d0e2 143d 9ef6 793d 9800 21bd daa7 273d
000002b0: 4047 143c 00c7 e2b9 a097 143c dbdc a53d
000002c0: f8f2 473c 8857 7dbc 0378 19bd 8240 4d3d
000002d0: 6adc 773c 5180 b6bd 0b13 80bd 619c 57bd
000002e0: 885d 123d a0eb 75bb e775 adbd 2282 94bd
000002f0: 38f9 4c3c 4eb8 223d 4f86 debd aa26 55bc
00000300: 3ee7 01bd 2af1 2cbd 0334 323d af12 28bd
00000310: cbac b3bc a7ca a0bd 7be6 62bd 1de1 cdbd
00000320: 2a5d fb3c 6fce 643c cc83 e3bd bbd1 8d3c
00000330: 8741 1e3d b3b2 9fbd d86b 5f3c c068 ecbc
00000340: 36dc 9c3c c3e8 2a3d cdaf b2bc b622 4bbd
00000350: 2c41 003d 33df a3bd 6554 0abd e1d2 5bbd
00000360: 4b21 b3bd cd0e 87bd 3b38 87bd af9b 52bc
00000370: 42f5 bdbc 5dc7 873c 65f3 fbbb e288 b03c
00000380: 6dbc 76bd 20c9 57bd 13a7 8cbd 2ea4 82bc
00000390: 848e 88bc 06de 2cbd 9dbf bfbd b0e5 08bc
000003a0: d5de 8f3c 3dc2 46bd 38e5 e6bd 785c b53a
000003b0: d19e 71bd 4310 79bd c0f6 c1bd bba0 8abd
000003c0: 25cc d3bd a66b a2bd e0b1 babd a3ee b83c
000003d0: 837f 7abc 3708 d2bd 491d a43b 5ee3 96bd
000003e0: 0ed7 3ebd b2af 58bc aa9a c5bd 0ac5 a8bc
000003f0: f11d 72bd fe70 7fbd 55b9 273d c286 1c3d

conv2.bias f4 [32]
-0.092525944 0.015431017 -0.1018082 -0.06931357 0.019912405 -0.027484216 -0.016816413 -0.07289038
-0.016973358 -0.019629167 -0.13563704 0.0818359 -0.10565018 -0.038670417 0.036233675 -0.027584897
0.2408336 -0.11307247 -0.11547191 0.0417528 0.06560645 0.14234719 -0.10207837 -0.040375255
-0.045468234 0.026699645 -0.15514268 -0.0681259 -0.037745304 0.25828576 0.15943736 -0.11495696
00000000: 3e7e bdbd 60d2 7c3c d180 d0bd 46f4 8dbd
00000010: 571f a33c 9426 e1bc 93c2 89bc 8d47 95bd
00000020: b60b 8bbc 59cd a0bc 70e4 0abe 9599 a73d
00000030: 1f5f d8bd df64 1ebd c369 143d b9f9 e1bc
00000040: 159d 763e 8a92 e7bd 897c ecbd fc04 2b3d
00000050: ad5c 863d 76c3 113e 770e d1bd 8660 25bd
00000060: e63c 3abd 37b9 da3c b9dd 1ebe 9885 8bbd
00000070: d29a 1abd 083e 843e 8c43 233e 8e6e ebbd

fc1.weight f4 [256, 512]
-0.020481303 0.028938007 0.011246987 0.035603937 0.0011974275 0.045604147 -0.04733498 0.040845264
0.009867825 -0.02099648 -0.037466355 -0.016084777 -0.02387424 0.014396999 0.02300999 0.018444646
0.040111538 0.03344218 0.018461067 0.041233834 0.034459937 0.004389394 -0.037292995 -0.012129009
0.03547891 -0.029219776 0.009043016 0.041997578 -0.042934008 0.020716142 0.033294354 -0.032725416
0.029269157 0.0040060095 -0.0040914565 0.03445187 -0.036822744 0.014496271 0.00392155 0.005367188
-0.02748439 0.036426943 -0.008959699 -0.036202334 -0.0075466447 -0.030917905 0.03475791 -0.03976385
0.15172495 -0.10464121 -0.42252094 -0.2881899 0.092069454 0.27471286 -0.47191575 -0.4891152
0.0028365569 0.39818355 0.017701114 -0.4553909 -0.12516922 -0.27921093 -0.682961 0.29967946
0.113700904 -0.06102866 -0.027591016 0.35650617 -0.11852505 -0.2130612 -0.0063892324 -0.11586748
-0.131567 -0.022489693 -0.22033128 -0.16978198 -0.49605054 0.267651 -0.11579268 -0.12182125
-0.19764067 -0.17669573 -0.092348985 0.690573 -0.25424662 -0.09839683 0.044172842 0.29847538
0.07695814 0.22093195 0.09161122 -0.21047425 -0.26231256 0.11686943 0.1381725 0.19206867
0.3982847 0.13314435 0.091150485 0.23910806 0.18697752 0.15607624 -0.32115906 -0.08601893
-0.19884668 -0.31591153 -0.5187997 -0.13161911 -0.29664707 -0.21156333 -0.0325537 -0.24816677
-0.00790875 0.025904264 0.026536997 0.04127193 0.03886584 -0.019882848 -0.0034371503 0.04253838
-0.009655394 0.00659851 -0.029468 -0.026547087 0.042531703 -0.019228114 -0.017963523 0.004660476
0.3542545 -0.031087868 0.29443455 0.183536 -0.19451903 -0.024006436 -0.34560692 0.2672151
0.037373126 -0.06820906 -0.3328023 0.034071352 0.14309661 0.21675585 -0.08628335 0.22272006
0.022653803 0.03360336 0.029654093 0.048618015 0.013723957 -0.059324756 -0.021618502 -0.018562565
-0.015097615 -0.028007159 -0.04225508 -0.026280997 0.039578807 0.046706427 0.034064494 0.038803082
0.030206762 0.032892663 -0.006177252 0.015095344 -0.027751727 0.092477284 0.08290636 0.037259012
-0.03644223 -0.0001452715 0.046751346 -0.04227893 0.021656165 -0.0028636965 -0.01596647 -0.0042110314
-0.31634185 -0.1449272 -0.07742175 0.3196089 -0.06267821 0.30721596 0.3619791 -0.05226753
0.15001541 0.3360475 0.11005658 -0.23124252 -0.04338491 0.14725676 0.6039267 0.48653167
0.046181973 0.07246679 0.17714499 -0.02261097 0.21818689 0.08328382 0.02918891 -0.33561262
0.10688304 -0.07708696 -0.0121760825 -0.021899914 0.034455307 -0.11150065 0.07427421 0.094118506
0.114123166 -0.07609009 0.12634191 0.0332425 0.15031664 0.07126931 -0.15911831 -0.08762997
0.1503779 -0.09182938 -0.7935153 -0.59424263 0.11767269 0.15464544 0.064399816 -0.3610806
-0.02119533 -0.3328973 -0.3561383 0.28794894 -0.18235123 -0.106606916 -0.4665299 0.041175064
-0.16892081 0.18103412 0.004613419 0.20986596 0.20196934 0.14214092 -0.33678862 0.047454655
0.10570282 0.14359334 0.12531671 -0.21854666 0.086976334 0.20968524 -0.061656456 -0.40591627
-0.092408724 0.15918665 0.024571553 -0.28076896 0.32482386 -0.37561372 -0.80570817 -0.13289735
00000000: 68c8 a7bc 660f ed3c 4845 383c 6fd5 113d
00000010: 00f3 9c3a 6acb 3a3d 53e2 41bd 5d4d 273d
00000020: a8ac 213c cf00 acbc 5276 19bd 39c4 83bc
00000030: e993 c3bc 64e1 6b3c 727f bc3c 3a19 973c
00000040: ff4b 243d abfa 083d aa3b 973c cfe4 283d
00000050: dd25 0d3d e8d4 8f3b 8ac0 18bd c0b8 46bc
00000060: 5552 113d 505e efbc 2829 143c a705 2c3d
00000070: 92db 2fbd e6b4 a93c a95f 083d 160b 06bd
00000080: dfc5 ef3c d844 833b a011 86bb 671d 0d3d
00000090: 72d3 16bd c481 6d3c 5880 803b 3cdf af3b
000000a0: f226 e1bc 6b34 153d b4cb 12bc e648 14bd
000000b0: d849 f7bb 8c47 fdbc 4f5e 0e3d 6bdf 22bd
000000c0: c95d 1b3e 214e d6bd aa54 d8be a08d 93be
000000d0: e98e bc3d 2aa7 8c3e f19e f1be 4f6d fabe
000000e0: 87e5 393b b7de cb3e ed01 913c ff28 e9be
000000f0: 5c2c 00be bcf4 8ebe 88d6 2ebf 966f 993e
00000100: 05dc e83d 30f9 79bd 8e06 e2bc fa87 b63e
00000110: 43bd f2bd b72c 5abe c45c d1bb ee4b edbd
00000120: 80b9 06be 4e3c b8bc 869e 61be 54db 2dbe
00000130: 56fa fdbe 8d09 893e b624 edbd 6b7d f9bd
00000140: 5162 4abe baef 34be 7721 bdbd 64c9 303f
00000150: 9d2c 82be 4784 c9bd 95ee 343d c4d1 983e
00000160: 3b9c 9d3d fc3b 623e aa9e bb3d 9086 57be
00000170: d54d 86be 3d59 ef3d 187d 0d3e a6ad 443e
00000180: f9eb cb3e fe56 083e 1bad ba3d bed8 743e
00000190: 0977 3f3e 73d2 1f3e f66e a4be b12a b0bd
000001a0: 779e 4bbe 28bf a1be 0fd0 04bf 29c7 06be
000001b0: 20e2 97be 0fa4 58be 0757 05bd 6e1f 7ebe
000001c0: b493 01bc 2e35 d43c 1e64 d93c c10c 293d
000001d0: c931 1f3d 5be1 a2bc d041 61bb b93c 2e3d
000001e0: a831 1ebc 5038 d83b e066 f1bc 4779 d9bc
000001f0: b935 2e3d 4784 9dbc 3d28 93bc e8b6 983b
00000200: d960 b53e fcab febc 20c0 963e dcf0 3b3e
00000210: ff2f 47be 25a9 c4bc 64f3 b0be 6bd0 883e
00000220: 9014 193d 31b1 8bbd 1065 aabe 678e 0b3d
00000230: eb87 123e 3ff5 5d3e 53b5 b0bd ba10 643e
00000240: 7894 b93c ada3 093d 24ed f23c af23 473d
00000250: 73da 603c 84fe 72bd 4919 b1bc 8510 98bc
00000260: fd5b 77bc 456f e5bc aa13 2dbd 3f4b d7bc
00000270: 631d 223d 3d4f 3f3d 3687 0b3d fbef 1e3d
00000280: 2c74 f73c 75ba 063d 8c6a cabb 7652 773c
00000290: 9757 e3bc bb64 bd3d cfca a93d e89c 183d
000002a0: 7344 15bd 0554 18b9 577e 3f3d ac2c 2dbd
000002b0: 4568 b13c dbac 3bbb 1dcc 82bc b1fc 89bb
000002c0: 8ff7 a1be cc67 14be 4b8f 9ebd c7a3 a33e
000002d0: 6f5d 80bd 694b 9d3e 5355 b93e 7a16 56bd
000002e0: a49d 193e 6b0e ac3e 5865 e13d d7ca 6cbe
000002f0: 60b4 31bd 7aca 163e f19a 1a3f ae1a f93e
00000300: 4f29 3d3d 7869 943d 7f65 353e a43a b9bc
00000310: 626c 5f3e b590 aa3d 951d ef3c 6bd5 abbe
00000320: 7fe5 da3d c5df 9dbd 317e 47bc 7367 b3bc
00000330: 0221 0d3d 745a e4bd 141d 983d 34c1 c03d
00000340: 68b9 e93d 1fd5 9bbd c65f 013e 4a29 083d
00000350: 9bec 193e a5f5 913d e9ef 22be 5777 b3bd
00000360: aafc 193e 0b11 bcbd d223 4bbf 4920 18bf
00000370: 61fe f03d 605b 1e3e 0de4 833d 8edf b8be
00000380: d4a1 adbc 8471 aabe c257 b6be 0b6e 933e
00000390: 48ba 3abe ba54 dabd 02dd eebe 2fa7 283d
000003a0: 94f9 2cbe 0261 393e 2a2c 973b 1ae7 563e
000003b0: 0dd1 4e3e 648d 113e 8f6f acbe d05f 423d
000003c0: b87a d83d 220a 133e 0653 003e b2ca 5fbe
000003d0: a620 b23d bab7 563e 7b8b 7cbd 42d4 cfbe
000003e0: c940 bdbd d301 233e 484a c93c f3c0 8fbe
000003f0: 504f a63e 7150 c0be e442 4ebf 3e16 08be

fc1.bias f4 [256]
0.039785683 0.33373633 0.21884382 -0.052877557 -0.026342051 -0.001104685 -0.06436252 -0.051699627
-0.0276851 -0.018589055 0.084818 0.010868519 0.0007139363 0.01746681 0.06630172 -0.003018435
-0.018691655 -0.03132345 -0.0026414322 0.22477287 0.3198584 -0.0209561 -0.0063569327 -0.0881311
0.39860338 0.34803662 0.16405545 0.12821668 0.108891994 0.20605318 -0.30711588 -0.03169434
0.43573546 -0.03889706 -0.117297545 -0.09148134 0.06427334 0.22253132 -0.12964861 0.008875686
-0.20716685 -0.223119 -0.23394918 0.13003412 -0.04847685 -0.16736256 0.4398623 0.31015748
-0.035284534 0.048568465 0.27312404 -0.05336509 0.18231079 -0.06876136 -0.20970902 0.16736564
0.044661056 0.170757 -0.005024148 0.06148646 0.33324605 -0.0012958939 -0.0021754066 -0.069377944
0.027347568 -0.17617571 0.08067692 -0.050358534 -0.020187244 -0.023779653 -0.03957598 0.074179895
0.0032488736 -0.042198792 0.21852 -0.0588135 0.148195 -0.03596695 0.28411037 -0.021880548
-0.046142455 -0.047689598 0.04379003 0.0013952474 -0.1439993 0.007798896 -0.2436842 -0.020874757
-0.005075117 0.09680473 0.11711123 0.36835632 -0.018646955 -0.06930399 -0.12668626 0.42544034
0.2588532 0.007611926 0.0956722 -0.047536798 -0.22089374 0.030451108 -0.11125478 0.008731018
0.012713524 0.11033579 -0.03579502 0.25016975 0.2644242 0.07549168 0.043730363 0.24044709
-0.0743147 -0.049237605 0.46333864 -0.0035432368 -0.057016823 0.2329345 0.021336623 -0.03317414
0.05899256 0.22618009 -0.21657525 0.41263267 0.006444991 -0.06733153 0.35299024 0.03732657
0.038410448 -0.0075177797 -0.20921297 -0.05915839 -0.049749058 -0.09029194 -0.047285534 -0.04109118
-0.37464732 -0.0746001 -0.15449512 -0.041334853 0.00342235 -0.14108244 -0.01251916 -0.056023408
0.058806248 -0.04038586 0.003442184 -0.055163544 -0.059040945 -0.4466908 0.32751948 0.0033544903
-0.08660632 0.28738335 0.1987152 -0.07628395 -0.3036682 -0.07099305 -0.028737184 -0.12686235
0.035925753 -0.064123474 0.1375745 -0.07363332 -0.20176955 -0.034632254 -0.057716865 -0.053492106
-0.015788566 0.16217898 0.17988575 -0.13550986 -0.053659435 0.003072998 -0.04051266 0.20722608
-0.22137775 0.50975 -0.050305806 0.28815225 -0.019713454 0.021131547 -0.15551512 -0.15409991
-0.00079820264 -0.08694514 0.088337965 0.08949609 -0.23770417 0.07266997 -0.052733183 -0.040825084
0.069957964 0.072476506 -0.009456196 -0.065061055 -0.057662226 -0.002839894 -0.25557876 -0.040155534
-0.01424567 -0.039091665 -0.49088693 0.02064778 0.014199179 0.24308404 0.11195094 -0.018961016
0.11959476 0.01826276 -0.1615912 0.017863516 0.2472281 -0.023155082 -0.016827019 0.25480583
-0.005332536 -0.11390862 -0.031274874 -0.10274926 -0.0124523705 0.14907451 -0.00763992 -0.026178846
0.37574697 0.17747372 -0.053668212 0.14784856 -0.20498155 -0.32837465 -0.05994451 -0.20385006
0.111772895 0.19423863 0.29502597 0.5525539 0.23141553 -0.012305297 -0.051956736 0.3853934
0.11975444 -0.16240028 0.23106635 0.09733972 -0.1186138 0.27859265 0.0010336231 -0.23557615
-0.08254888 0.046948448 -0.014941683 -0.054139894 0.086592674 -0.08686135 0.0066986997 0.017261337
00000000: 50f6 223d 7ddf aa3e 9818 603e 2396 58bd
00000010: 49cb d7bc 14cb 90ba 7fd0 83bd fdc2 53bd
00000020: ddcb e2bc 1348 98bc 0fb5 ad3d df11 323c
00000030: 7427 3b3a 8e16 8f3c 32c9 873d f0d0 45bb
00000040: 3e1f 99bc 054d 00bd e11b 2dbb dc2a 663e
00000050: 7bc4 a33e 21ac abbc d14d d0bb 147e b4bd
00000060: be15 cc3e db31 b23e 27fe 273e 3c4b 033e
00000070: c402 df3d 9bff 523e 4b3e 9dbe edd1 01bd
00000080: b818 df3e 8652 1fbd b239 f0bd 925a bbbd
00000090: bea1 833d 40df 633e 9bc2 04be 536b 113c
000000a0: 8c23 54be 4f79 64be 6090 6fbe aa27 053e
000000b0: a98f 46bd 1761 2bbe a235 e13e f6cc 9e3e
000000c0: 8486 10bd baef 463d ead6 8b3e 5a95 5abd
000000d0: aeaf 3a3e c2d2 8cbd f6bd 56be e661 2b3e
000000e0: 83ee 363d ecda 2e3e 9ca1 a4bb 3ad9 7b3d
000000f0: 3a9f aa3e fcda a9ba 4491 0ebb 0616 8ebd
00000100: 0208 e03c 6867 34be f139 a53d c044 4ebd
00000110: b85f a5bc 8ccd c2bc 6c1a 22bd a1eb 973d
00000120: 0eeb 543b a4d8 2cbd b5c3 5f3e 6de6 70bd
00000130: 6ec0 173e 1552 13bd ea76 913e d63e b3bc
00000140: dfff 3cbd 2b56 43bd 2d5d 333d bce0 b63a
00000150: 8d74 13be e28d ff3b 5a88 79be 8a01 abbc
00000160: 2b4d a6bb 8f41 c63d 03d8 ef3d 3399 bc3e
00000170: 80c1 98bc 40ef 8dbd 0bba 01be 51d3 d93e
00000180: 6888 843e 776d f93b c9ef c33d f2b5 42bd
00000190: f831 62be 9a74 f93c 8cd9 e3bd 8b0c 0f3c
000001a0: 624c 503c bbf7 e13d cd9d 12bd 4016 803e
000001b0: 9c62 873e 629b 9a3d 9c1e 333d c337 763e
000001c0: 4e32 98bd 5fad 49bd b93a ed3e a635 68bb
000001d0: 798a 69bd 6286 6e3e 24ca ae3c 9be1 07bd
000001e0: 2fa2 713d c19b 673e e7c5 5dbe 9744 d33e
000001f0: 8130 d33b 1de5 89bd 23bb b43e bfe3 183d
00000200: 4654 1d3d b557 f6bb ed3b 56be 1150 72bd
00000210: abc5 4bbd fbea b8bd 7aae 41bd 3a4f 28bd
00000220: c6d1 bfbe f0c7 98bd f833 1ebe bc4e 29bd
00000230: 8149 603b ea77 10be 2a1d 4dbc cd78 65bd
00000240: d2de 703d a56b 25bd 4496 613b 2bf3 61bd
00000250: ebd4 71bd a8b4 e4be a2b0 a73e 02d7 5b3b
00000260: a85e b1bd e923 933e ff7b 4b3e c23a 9cbd
00000270: 667a 9bbe ce64 91bd 3e6a ebbc 34e8 01be
00000280: e226 133d 2b53 83bd 54e0 0c3e 11cd 96bd
00000290: ad9c 4ebe 8dda 0dbd 8568 6cbd 8a1a 5bbd
000002a0: 0657 81bc 3f12 263e f833 383e 19c3 0abe
000002b0: ffc9 5bbd 5a64 493b 9af0 25bd 1333 543e
000002c0: d9b0 62be fa7e 023f 760d 4ebd b188 933e
000002d0: 1c7e a1bc 111c ad3c 5b3f 1fbe 5ecc 1dbe
000002e0: 793e 51ba 4b10 b2bd 89ea b43d ba49 b73d
000002f0: b968 73be fed3 943d c0fe 57bd 3438 27bd
00000300: 1f46 8f3d 906e 943d 29ee 1abc bb3e 85bd
00000310: 3a2f 6cbd 841d 3abb 38db 82be 217a 24bd
00000320: ac66 69bc 951e 20bd 8855 fbbe 8825 a93c
00000330: aca3 683c 06eb 783e 8946 e53d 2254 9bbc
00000340: 19ee f43d c99b 953c 2a78 25be 8256 923c
00000350: 5d29 7d3e baaf bdbc d1d8 89bc e975 823e
00000360: 8ebc aebb ec48 e9bd 151a 00bd 346e d2bd
00000370: 0705 4cbc fda6 183e 4b58 fabb 0575 d6bc
00000380: e861 c03e acbb 353e 33d3 5bbd 9d65 173e
00000390: afe6 51be b920 a8be 6088 75bd 12be 50be
000003a0: 30e9 e43d 7ee6 463e a50d 973e 2c74 0d3f
000003b0: 31f8 6c3e 289c 49bc 96d0 54bd 4952 c53e
000003c0: d141 f53d 424c 26be a89c 6c3e 0c5a c73d
000003d0: cbeb f2bd b2a3 8e3e a37a 873a e03a 71be
000003e0: 630f a9bd 044d 403d f6cd 74bc cbc1 5dbd
000003f0: 8057 b13d 5de4 b1bd c480 db3b a667 8d3c

fc2.weight f4 [2, 256]
-0.4179566 0.15645215 0.7726154 0.014545841 -0.033256337 -0.742734 -0.2618743 0.046864703
-0.52960116 -0.01726865 -0.48010436 -0.141437 -0.02660346 -0.2944196 -0.19148992 -0.1353757
-0.017462943 0.14897437 -0.0095626395 0.48457927 0.67144316 -0.0021134873 0.05826811 -0.027291477
0.8324809 0.49601862 0.16796699 -1.277939 -0.8156146 0.22637205 -0.40462142 -0.55444777
0.21724735 -0.67133886 -0.43251604 -0.35927722 -0.085790575 0.28926116 -0.7052102 -0.015550892
0.71690744 -0.26097634 -0.95759845 0.24988729 -0.0037239396 -0.30514878 0.23292597 0.42888334
-0.0056704176 -0.42338464 0.076498404 -0.055183977 0.10603122 0.37345013 -0.083166584 0.60475206
0.15994902 0.3817514 -0.35151953 -0.008652434 0.46034205 -0.027833 0.054185867 0.062059715
-0.60208553 0.0018201598 0.40918323 -0.00081068 0.016725112 -0.012620967 0.061779577 0.015746204
-0.04457177 -0.06987759 0.35683346 -0.021373093 0.9816545 -0.280747 0.37118086 0.051558755
0.061357614 0.015599634 0.046277497 -0.1293302 0.00023640651 -0.034847233 -0.07635376 -0.117682464
-0.41040617 0.009746153 -0.012175518 0.35724097 0.03401502 -0.22240217 -0.06872494 0.31108895
-0.21413916 -0.031459205 -0.14450215 -0.14343657 -0.034065656 -0.26268846 -0.08874622 -0.2457286
0.4152047 0.43639466 0.029999819 1.1226319 0.53512084 -0.759605 -0.8974926 0.4944827
-0.011452289 0.027487408 0.37737444 -0.90375763 0.04521006 -0.48214382 -0.01803402 0.05583248
0.5006922 0.06661534 -0.14579876 0.18200348 -0.25557262 -0.5347103 0.36477023 -0.003683406
-0.2966707 -0.037522744 -0.056035995 -0.016367685 -0.0043543195 0.006364865 -0.018734833 -0.023963321
-0.38218153 0.0041213874 -0.7056529 -0.02387288 0.05928505 -0.2698455 -0.039758094 0.015477235
0.62634575 -0.047973957 -0.006190105 -0.3586579 -0.18968868 -0.108270936 0.45169353 -0.4865347
-0.42248324 0.18681996 -0.4218918 0.037897836 -0.094725974 0.020109948 0.026067011 0.005547252
-0.64975184 0.06943371 0.4537904 0.012319882 -0.63278335 0.031635657 0.27023876 0.045397397
0.050522022 0.6351474 0.16673997 -0.64260256 0.035906985 0.029359652 0.0028288628 0.041848205
-0.35151622 0.3170247 -0.024117105 0.39081728 0.34352797 0.10373308 -0.6556079 -0.007846455
0.05771679 -0.6926904 -0.39749467 0.066985704 -0.15417857 -0.44527552 0.026300432 0.0383839
-0.0815193 -0.42615956 -0.73257595 0.0134631 0.012090959 -0.96662635 -0.14868715 -0.0035187663
0.038610592 0.03863563 -0.051403612 0.03686649 0.0058018756 0.114901096 0.56319124 0.5431713
0.062390774 0.0045003104 -0.4074904 -0.3847322 -0.642152 0.035674326 -0.013583269 0.092724904
0.028614653 0.03357409 0.04669536 0.4519017 -0.056828663 -0.041700672 -0.022417028 -0.03665959
-1.1184567 -0.92114204 0.019150324 0.5150443 -0.21326444 -0.86144686 0.005280685 0.052675027
-0.006755735 0.5552888 0.74846995 0.37211522 0.37774923 -0.3073205 0.017875848 0.12578052
-0.063556105 -0.014258361 0.07413479 -0.022863982 -0.2809933 0.39533663 -0.01866035 -0.055260062
-0.8227228 -0.011309482 -0.033330325 0.05180114 -0.018371144 -0.32759038 -0.74328953 -1.5012156
00000000: 68fe d5be fe34 203e 1fca 453f ae51 6e3c
00000010: cc37 08bd d123 3ebf 6314 86be 34f5 3f3d
00000020: f193 07bf fc76 8dbc 3dd0 f5be dcd4 10be
00000030: 80ef d9bc 2abe 96be ef15 44be ed9f 0abe
00000040: 720e 8fbc bd8c 183e 9eac 1cbc c61a f83e
00000050: b3e3 2b3f 6f82 0abb 8baa 6e3d 6092 dfbc
00000060: 781d 553f 27f6 fd3e 8aff 2b3e 8193 a3bf
00000070: 1ecc 50bf 13ce 673e 8a2a cfbe 4af0 0dbf
00000080: 1776 5e3e dddc 2bbf be72 ddbe 2ff3 b7be
00000090: f8b2 afbd 0a1a 943e a888 34bf 2bc9 7ebc
000000a0: 3f87 373f b19e 85be 2c25 75bf 74e2 7f3e
000000b0: 570d 74bb 763c 9cbe 2584 6e3e 9996 db3e
000000c0: e9ce b9bb dfc5 d8be 32ab 9c3d 9808 62bd
000000d0: e526 d93d db34 bf3e 3e53 aabd 08d1 1a3f
000000e0: adc9 233e eb74 c33e 5efa b3be f0c2 0dbc
000000f0: f4b1 eb3e 0802 e4bc 00f2 5d3d 5432 7e3d
00000100: 4722 1abf 6e92 ee3a 7780 d13e d083 54ba
00000110: 1a03 893c 2cc8 4ebc 950c 7d3d 2ffe 803c
00000120: e390 36bd fb1b 8fbd e0b2 b63e a016 afbc
00000130: b64d 7b3f 12be 8fbe 6b0b be3e 462f 533d
00000140: 1f52 7b3d 9b95 7f3c 798d 3d3d 236f 04be
00000150: e4e3 7739 f9bb 0ebd 5c5f 9cbd 8103 f1bd
00000160: c220 d2be 54ae 1f3c d37b 47bc 4ae8 b63e
00000170: 5553 0b3d 65bd 63be a9bf 8cbd 0d47 9f3e
00000180: 4c47 5bbe 5edb 00bd 5ff8 13be 09e1 12be
00000190: 6e88 0bbd 1a7f 86be 94c0 b5bd 47a0 7bbe
000001a0: b695 d43e 1f6f df3e 2ec2 f53c 67b2 8f3f
000001b0: aefd 083f 7975 42bf 13c2 65bf d62c fd3e
000001c0: 62a2 3bbc 462d e13c 3937 c13e a95c 67bf
000001d0: 2f2e 393d 8edb f6be 15bc 93bc 99b0 643d
000001e0: 5d2d 003f a06d 883d 454c 15be 1f5f 3a3e
000001f0: 6ada 82be c6e2 08bf 2ac3 ba3e 4c65 71bb
00000200: 39e5 97be 73b1 19bd 0086 65bd 8615 86bc
00000210: aeae 8ebb 5c90 d03b cb79 99bc ba4e c4bc
00000220: 4cad c3be b40c 873b aba5 34bf 0f91 c3bc
00000230: e1d4 723d 3029 8abe 62d9 22bd 3b94 7d3c
00000240: 3258 203f 5780 44bd 5dd6 cabb 02a2 b7be
00000250: c03d 42be 27bd ddbd 6044 e73e 141b f9be
00000260: b94f d8be bb4d 3f3e 3402 d8be c33a 1b3d
00000270: b1ff c1bd 9ebd a43c 7c8a d53c b9c5 b53b
00000280: 2356 26bf 4333 8e3d 3757 e83e 55d9 493c
00000290: 17fe 21bf 6494 013d bc5c 8a3e 9ff2 393d
000002a0: 2ef0 4e3d 0599 223f e2bd 2a3e 9a81 24bf
000002b0: 3413 133d a783 f03c 7164 393b 0669 2b3d
000002c0: eff9 b3be 1051 a23e 3c91 c5bc 3419 c83e
000002d0: e6e2 af3e 0272 d43d ebd5 27bf 6b8e 00bc
000002e0: 7168 6c3d 2854 31bf 6c84 cbbe cd2f 893d
000002f0: fde0 1dbe 27fb e3be 0174 d73c 7038 1d3d
00000300: 97f3 a6bd 9631 dabe 198a 3bbf 5694 5c3c
00000310: 2819 463c d374 77bf 7241 18be 1a9b 66bb
00000320: 2426 1e3d 6540 1e3d 988c 52bd 5101 173d
00000330: a91d be3b 4451 eb3d 4d2d 103f 460d 0b3f
00000340: 788d 7f3d 5777 933b 95a2 d0be 9efb c4be
00000350: 1364 24bf 3e1f 123d 5c8c 5ebc 8ee6 bd3d
00000360: 4769 ea3c fc84 093d a243 3f3d a95f e73e
00000370: 2cc5 68bd 53ce 2abd eaa3 b7bc 5e28 16bd
00000380: 9729 8fbf f7cf 6bbf 24e1 9c3c f1d9 033f
00000390: fe61 5abe c887 5cbf 9909 ad3b c5c1 573d
000003a0: 365f ddbb 6827 0e3f ba9b 3f3f e385 be3e
000003b0: 5968 c13e 1d59 9dbe 5f70 923c 9ccc 003e
000003c0: b429 82bd e79b 69bc fbd3 973d 3f4d bbbc
000003d0: 5bde 8fbe 9069 ca3e 97dd 98bc 6058 62bd
000003e0: f69d 52bf 684b 39bc 6185 08bd 6f2d 543d
000003f0: 157f 96bc edb9 a7be 3948 3ebf d527 c0bf

fc2.bias f4 [2]
0.34666535 -0.38295698
00000000: 1f7e b13e f012 c4be
